Course-Resources/example nn/testnn.pt (torch, 250887 bytes, 10 tensors)

weight f4 [6, 1, 5, 5]
00000000: 696e 023e 284e 04be 0233 f93d 1684 99bd
00000010: e538 013e 0e1f 0fbe 93d6 40be c0b1 f73c
00000020: ab13 4b3e 308a b0bd 3487 5ebd 0043 0a3a
00000030: da2a c3bd 8056 c3bc 3e46 d33d 1d27 23be
00000040: 433e 183e bfe5 2b3e 0c78 423d 6fc5 233e
00000050: 5b7d 483e 111b 493e 93e5 c3bd 3298 913d
00000060: 87d2 363e a0f0 bdbd e819 f13c f037 c83c
00000070: 7d25 fbbd 1290 29be 915c 4b3e 98b7 ac3c
00000080: 8c9d 3d3d c950 373e 8829 19bd 2af5 8ebd
00000090: 17dd cfbd aeb2 833d 002b 0a3d 008d 763a
000000a0: 40e0 d53b 1768 323e 04e2 683d b315 3dbe
000000b0: 7764 3ebe 4064 18be a017 74bc fdbf 3e3e
000000c0: 13fc b2bd 80ca c63a a5c6 1ebe 8090 fabc
000000d0: d0f7 46bc 59fc 343e 8e7b 9d3d 2b7e 3a3e
000000e0: dae7 1dbe ada7 a7bd 8aba 953d 18f9 d9bc
000000f0: 48ef 46bd 8a87 49be 4026 8a3b b07b bc3c
00000100: 40d7 fd3c 69d7 003e d550 0bbe 10d9 47be
00000110: 18bb f3bc da84 ce3d 6076 ffbd ec7b 96bd
00000120: be55 963d 4dbb d0bd 9bba 473e 0542 1a3e
00000130: 078c e0bd 3a28 efbd 0edc cc3d 52c6 d23d
00000140: 0018 4539 9864 d73c c061 49bd d213 ab3d
00000150: 9252 23be d956 123e 94c9 1ebd e9b9 063e
00000160: 6a0f b93d e07b 1cbe 40e0 c1bb 625e 4abe
00000170: 601c 6b3c 2c60 0c3d 7555 3ebe e675 0ebe
00000180: 743d 6f3d ce92 f63d f5c6 34be 28f0 f2bc
00000190: c049 2dbe 62be 19be e3b9 053e 801c e6bd
000001a0: 8148 023e dc3c 7f3d 0fcb 143e d4f7 12bd
000001b0: 52ef d83d 3003 34be 59a6 243e 0256 8e3d
000001c0: 32c3 ab3d 7a91 8bbd 0e55 eb3d 67a2 073e
000001d0: aa9c d33d cda0 303e 8959 133e 77c8 d8bd
000001e0: d85a 81bc 8e19 20be 0bcc 28be 6200 803d
000001f0: 8d93 14be 3846 53bd 46ae 1abe dd6e 00be
00000200: de0f e03d fa69 49be 7432 4fbd a166 443e
00000210: e597 39be 96f0 8dbd 9aeb 2fbe a293 c33d
00000220: 2f4b 083e 4521 15be 5060 88bc 7d6d 4cbe
00000230: 6dd6 05be e7a3 40be 8021 873a 0053 8fbd
00000240: 7568 3fbe d806 ca3c 5d82 2b3e e826 f0bc
00000250: 3e3b 22be f3e1 b8bd
0.1273743 -0.12920439 0.12167932 -0.074958965 0.1261936 -0.1397669 -0.18831854 0.030236125
0.19831721 -0.08620107 -0.05432816 0.0005274266 -0.09529658 -0.023844957 0.10316132 -0.1593289
0.14867501 0.1678686 0.047477767 0.15993284 0.1957907 0.19639231 -0.09565272 0.07109107
0.17853747 -0.09274411 0.029431298 0.024440736 -0.1226301 -0.16558865 0.1985953 0.021083638
0.046292827 0.17901911 -0.037393123 -0.06980355 -0.101495914 0.06430565 0.033732414 0.0009405166
0.006526977 0.1742252 0.05685617 -0.18465309 -0.18593012 -0.14881992 -0.014898211 0.18627925
-0.087394856 0.0015166551 -0.15505464 -0.030586481 -0.012144044 0.17674388 0.07689582 0.18212192
-0.15420476 -0.081862785 0.0731097 -0.026608035 -0.04856804 -0.1968061 0.0042159855 0.023008198
0.030986428 0.12582172 -0.13605054 -0.19516397 -0.0297523 0.10083933 -0.1247375 -0.07347855
0.07340573 -0.10191975 0.19504778 0.15064247 -0.10964208 -0.116775945 0.100029096 0.10291733
0.00018796325 0.026293084 -0.049165487 0.0835339 -0.15949467 0.14290942 -0.03876646 0.13156857
0.09036143 -0.1528163 -0.0059166253 -0.19762567 0.014350027 0.034271404 -0.18587287 -0.13912162
0.058408216 0.120397195 -0.17654021 -0.029655531 -0.16922665 -0.15014032 0.13059191 -0.11235905
0.1272297 0.0623139 0.14530586 -0.03588088 0.10592522 -0.17579341 0.16079082 0.069499984
0.0838684 -0.06814857 0.11490832 0.13245545 0.10332616 0.1724884 0.14389624 -0.10585111
-0.015790388 -0.15634748 -0.16484086 0.06250073 -0.14509411 -0.051580638 -0.15105543 -0.12542291
0.109405264 -0.19669333 -0.050585225 0.19179775 -0.1812435 -0.06930654 -0.17179719 0.09549643
0.1330993 -0.14563473 -0.016647488 -0.19963641 -0.13070078 -0.18812524 0.0010309666 -0.06998253
-0.18692191 0.024661466 0.16748948 -0.029315427 -0.15842912 -0.090274714

bias f4 [6]
00000000: c2e3 07be 70eb 99bc 9dd9 cabd 400c 07bd
00000010: 50ab 7d3c 0d58 183e
-0.13270476 -0.018789023 -0.09904788 -0.032970667 0.015482739 0.14877339

weight f4 [16, 6, 5, 5]
00000000: 68d5 8f3d a518 8cbd 6857 ba3c b440 5fbd
00000010: 90d2 94bd 002b 1cba e8a7 7abd 20b7 afbc
00000020: f607 1a3d 202a 0a3b 3e2f 9fbc 50f3 753c
00000030: 0bc1 5abd 0c65 e03c c06a 753d 5042 08bc
00000040: 9eb4 843d a8f3 9fbd dd22 3abd f037 373c
00000050: 5059 38bc 3e4b 8ebd 16bf 68bd a402 9d3c
00000060: 40ef 873d a503 6fbd bc6e 1b3d c8cd c93c
00000070: 8461 533d 3434 8c3d 2108 4dbd c651 0e3d
00000080: 4cf1 babc 1095 27bc d9ec a4bd d46e 173d
00000090: f88c 61bd f113 39bd c052 113b 0523 99bd
000000a0: 34ca 013d 10c4 bd3c dac4 8c3d 1ad5 cfbc
000000b0: 588d f13c 8a6b d0bc 583e 613d 7e6a 81bd
000000c0: 1a56 78bd 0e3f 5dbd ac5e 0a3d 20f7 c9bb
000000d0: 907d 2fbc 70d2 ab3b fc41 943c 82b3 8c3d
000000e0: 4ac0 99bd 4c8d 0d3d 0e5d 9ebc 70bf a93c
000000f0: 3330 99bd 1086 1abc 8a3b 953d f005 11bd
00000100: 8067 713b e041 2ebc 1605 893d 119c 5fbd
00000110: 10fb 7d3c a849 06bc e6ad a1bd f433 873d
00000120: 0094 dbb8 94c8 793d 797c 4abd 1838 2c3d
00000130: c8f0 393d e7e5 97bd d01f 59bd c789 a1bd
00000140: 7b79 81bd 14c5 743d f61e 03bd e381 8dbd
00000150: 2af3 9c3d 001f 65bc 2c71 ef3c 7838 2dbc
00000160: fe73 953d 431b 06bd 10b0 2bbd d495 4e3d
00000170: 746b ca3c e407 ea3c 44d8 c83c a89a 833c
00000180: e0de 4a3d a8ad d13c d8b1 2e3c 1e04 2abd
00000190: b330 3cbd d163 8ebd b830 7d3d c213 89bd
000001a0: fccc 803c a011 bf3c 1066 773d e4b5 f33c
000001b0: 402e 1a3d 5fd2 2dbd d64c 883d 1091 a73c
000001c0: de7b 97bd e5a2 0abd 954a 8abd 2c35 a73d
000001d0: 0462 79bd c88f 29bc 0c48 55bd d814 2a3d
000001e0: 3e5a 083d 6277 82bd a884 c5bc 8083 c5bb
000001f0: c612 ecbc 908b cebb a186 58bd c287 863d
00000200: 5815 233c 1c0f 983c 708f e43c fa49 243d
00000210: b236 c0bc 4a49 89bd 1603 babc cc10 4fbd
00000220: e8bc 99bd 0ce9 263d 827f 63bd 7067 b03b
00000230: d59e 86bd 2881 4ebd 64ed 923c f85b 2a3c
00000240: 2c15 3cbd 9016 893b 6224 a03d 0067 843c
00000250: e120 94bd be21 993d c055 0e3d f865 59bd
00000260: 9c52 fe3c c04e 983c 2844 27bc 0086 7339
00000270: 80d7 86bb 32f2 2dbd e2f4 8dbd d850 993c
00000280: 20b0 00bc 106f 593d 4063 a2bb e622 f4bc
00000290: c850 7dbc 70b2 7abc d88f ec3c 0e1a 203d
000002a0: c82a 4e3d c80e 343d 008e fabb ed11 9cbd
000002b0: 4ac6 d4bc ae81 babc 66c7 1f3d 71ab 1fbd
000002c0: fca9 313d 5820 6d3d 28d3 8fbd 7e6e 133d
000002d0: 3c12 d33c 5a31 963d 207b a13d a8d2 e9bc
000002e0: 5ad5 82bd f24e c6bc a006 bfbb 66a2 c7bc
000002f0: f805 653d b4db 57bd 6c78 d23c 702c 593c
00000300: b250 8bbd 4c49 943c 3098 59bd 0ac9 1b3d
00000310: 00e9 fbb9 d748 4abd f024 9f3c 006e 403b
00000320: 70b5 5b3d f483 8b3d 7738 9abd 5b95 a3bd
00000330: ba4e 073d cece 9abd c0d4 383d b70a 89bd
00000340: 985f dbbc 8029 603c 11da 97bd 6000 aabc
00000350: d0a7 ce3c 020f 1dbd 2ce0 9fbd 3853 7cbc
00000360: 1dc3 89bd e9aa 8abd da31 5fbd a0f1 853c
00000370: 343b 053d 0db8 9cbd e4be 753d 0018 63b8
00000380: 35a6 00bd 98ab 9c3c b052 8abc 2a95 9b3d
00000390: e667 d9bc 09e2 77bd a016 69bc 740a 2e3d
000003a0: 6028 8f3c 08ba 463c d8fa 1d3c d22c 863d
000003b0: 2e90 e0bc be32 893d 30b0 07bc 82e7 873d
000003c0: 1025 973d 526b 85bd 1c03 e0bc 37df 1dbd
000003d0: 14f2 593d 9839 5ebd d6a4 68bd ba14 f2bc
000003e0: 00b5 1f3c 48c1 603d 9084 423c cce2 933d
000003f0: 8d87 8abd 21d5 63bd b898 44bd 8087 54bc
0.07023126 -0.06840638 0.022746757 -0.054505065 -0.07266724 -0.0005957335 -0.061195284 -0.021449625
0.03760525 0.0021082237 -0.019431707 0.0150116235 -0.053406756 0.027391933 0.059916258 -0.008316591
0.064797625 -0.078101456 -0.045443404 0.01118277 -0.0112517625 -0.06947945 -0.05682286 0.019166298
0.0663743 -0.058353085 0.0379474 0.024634257 0.05160667 0.068458945 -0.05005658 0.034745954
-0.022820137 -0.01022841 -0.080529876 0.03697093 -0.05506608 -0.045185033 0.0022174567 -0.074773826
0.031686977 0.023164779 0.06873484 -0.02537017 0.029486343 -0.025441904 0.054991096 -0.0631914
-0.060628988 -0.05401521 0.033781692 -0.006163493 -0.010711089 0.005243592 0.01809787 0.06870176
-0.07507379 0.03455858 -0.019331481 0.020721167 -0.074798964 -0.009431377 0.07286747 -0.035406053
0.0036835372 -0.010635823 0.06690423 -0.054592196 0.0155017525 -0.008196272 -0.078944966 0.06601706
-0.00010470301 0.0609823 -0.049435113 0.042045683 0.045395643 -0.07416897 -0.053008854 -0.07887607
-0.06321999 0.05975826 -0.03201195 -0.069095396 0.07663567 -0.013984442 0.02922877 -0.010572545
0.072975144 -0.032740843 -0.041915953 0.050435856 0.02470944 0.028568216 0.024517186 0.016064957
0.049528956 0.025595501 0.010662518 -0.041507833 -0.04594488 -0.06952632 0.06181404 -0.06693222
0.015722744 0.023323834 0.06040007 0.029749818 0.037641764 -0.042436954 0.0665528 0.020454913
-0.07396673 -0.033846755 -0.06752507 0.081644386 -0.06088449 -0.0103492215 -0.052070662 0.041523784
0.033289187 -0.06370427 -0.024111107 -0.006027639 -0.028817546 -0.0063032582 -0.052862767 0.065688625
0.009953819 0.018561892 0.027900428 0.040109612 -0.02346358 -0.06703432 -0.02270655 -0.050553128
-0.07506734 0.040749595 -0.055541523 0.0053834245 -0.065732636 -0.05041614 0.017935462 0.010397904
-0.04591863 0.004183598 0.078194395 0.016162395 -0.07232834 0.07477139 0.034749746 -0.05307576
0.03104525 0.018592238 -0.010209121 0.00023224205 -0.004115045 -0.042467304 -0.06931473 0.018715307
-0.0078544915 0.053084433 -0.004955679 -0.029801797 -0.015461154 -0.015301332 0.028877184 0.039087348
0.050333768 0.04395941 -0.0076463223 -0.076206066 -0.025973458 -0.022766914 0.03900852 -0.03898186
0.043375 0.057892174 -0.07022697 0.035994045 0.02576553 0.07333632 0.07884812 -0.028542832
-0.0638835 -0.024207566 -0.005829647 -0.02436943 0.055913895 -0.05269976 0.025692187 0.013255224
-0.06802501 0.018101357 -0.053123653 0.038033523 -0.0004804805 -0.04938587 0.019426793 0.002936244
0.05363983 0.068122774 -0.07530301 -0.07987472 0.033034064 -0.07558976 0.04512477 -0.06691497
-0.026778981 0.013681769 -0.0741464 -0.020752132 0.025226504 -0.03834439 -0.07806429 -0.0154007
-0.06726668 -0.0677088 -0.0544909 0.016350567 0.032527164 -0.076522924 0.0599965 -5.414337e-05
-0.031408507 0.019124791 -0.016885132 0.0759681 -0.0265388 -0.0605183 -0.014226586 0.042490438
0.017475307 0.012129314 0.009642325 0.065515175 -0.0274125 0.066991314 -0.0082817525 0.066359535
0.07380116 -0.0651461 -0.027345233 -0.038542952 0.05320938 -0.054254144 -0.056797825 -0.029550899
0.009747744 0.054871827 0.011872426 0.072209924 -0.067641355 -0.055623177 -0.047997206 -0.012971759

bias f4 [16]
00000000: 5c35 0e3d 3818 f63c 44f1 80bc 8082 053d
00000010: 00f3 d93b 280b 6b3d f46a 7c3d eb9c 81bd
00000020: 42e7 21bd a021 6dbc 3c61 d5bc 70d8 b43b
00000030: f4bc 4ebd b0aa 973d 4059 c63b a80d 293d
0.034718856 0.030040845 -0.015740044 0.032595158 0.0066512823 0.057383686 0.061625436 -0.06328758
-0.039527185 -0.014473349 -0.026047342 0.0055189654 -0.05047317 0.07405603 0.00605312 0.04127279

weight f4 [120, 400]
00000000: dc39 88bc f4c1 06bd d0c8 f0bb 807e 2fbc
00000010: cae7 8fbc 942a 03bd 4692 e73c baec 9ebc
00000020: 42fc c53c e830 de3b ad6c 0d3d 7092 8abc
00000030: 1aa8 01bd d0f8 0abd b7a5 3ebd 9847 f7bb
00000040: ee0c c03c 7489 14bc 16fa 953c 0d11 acbc
00000050: b2ed ab3c 8019 5fba 55de 3dbd 9495 273c
00000060: 27b8 313d f4d6 0bbd c95b 393d 6040 32bd
00000070: 98f6 77bc 8a79 c6bc 2852 973b 14da 1d3c
00000080: 2e71 e73c d075 bdbc c6ef 22bd abfb 3abd
00000090: 4444 623c fabd bc3c 1ac0 b23c 407e 90bc
000000a0: 9a84 b03c 2510 24bd 4a86 ae3c e117 203d
000000b0: 87b0 b5bc a308 afbc de93 ab3c 15fd 2ebd
000000c0: f1f5 453d d876 e53b 445b 623c 00cb 99bc
000000d0: 112b 3c3d e740 febc 904b c4bb 9bd5 4bbd
000000e0: f858 1dbc 9ab1 ecbc b032 5e3b bdb4 05bd
000000f0: 1bea 38bd f253 913c 28f8 babb 2660 e73c
00000100: 331a 2f3d f8da 49bc 6225 813c 521f 2cbd
00000110: b584 11bd 5223 c13c b0ee 2abd 63d9 aabc
00000120: d7c2 203d 7bd0 0cbd ac1b 8abc 10fa dfbc
00000130: b47d 80bc ad7e f3bc 147d 2e3c 98dc e83b
00000140: 08b4 13bd 9096 bcbc 9411 3dbc 0288 36bd
00000150: b085 bdbb ec17 333c 66d4 1cbd 26b8 8fbc
00000160: 3857 15bc 2844 5ebc f70c cfbc 8076 b939
00000170: 70df 1abd 35c4 0e3d 983c 00bc 5294 963c
00000180: 193e 073d 521f f93c 62ec fb3c 99ec 173d
00000190: 64c9 83bc 9417 733c d2ad 9d3c a241 8b3c
000001a0: f9a9 3b3d 973c 3a3d 8ce6 20bc 70b0 f1bc
000001b0: 6695 13bd b0f4 a83b e7f0 3abd f876 2c3c
000001c0: 764d 803c a9e4 423d 8dc0 fdbc e3c1 29bd
000001d0: ec0d 44bc 8223 e13c 2a22 963c 9e8c 8d3c
000001e0: c2de b83c a817 14bc dd96 00bd 84af 503c
000001f0: 0748 0f3d f01a 8abc a305 b4bc fe3e d63c
00000200: ad04 233d 3257 df3c 7220 e83c bf4f 423d
00000210: 19b4 4b3d d41c 4d3c 3342 d6bc 97b9 febc
00000220: c62e aa3c b2b7 42bd 66c0 9b3c 79c8 3f3d
00000230: 22de 833c e201 c13c 60aa 443c 54cd 13bc
00000240: 2ba5 3b3d d29d 25bd 5832 dbbb c05f e13a
00000250: e29a dd3c d23c bc3c 3d53 cbbc e05b 04bd
00000260: 58c4 d7bb cb30 48bd 78f3 14bd 689f d3bb
00000270: 96b2 e13c 4aee ea3c 68e6 08bd 30d2 95bc
00000280: 3a9a 35bd c6cd 0ebd 4524 34bd b19f 3d3d
00000290: ad6e 1f3d 1318 173d f4ba 643c a03c af3a
000002a0: 121d 8d3c 982c dc3b f80e 173c 8cfd 5f3c
000002b0: c5b6 03bd 55bb 343d 3fcc 3a3d a079 1c3b
000002c0: 4073 a7bb a2ea 9e3c 2cff 6cbc 90f8 f1bc
000002d0: f6cf 95bc b219 833c d278 963c 9029 843b
000002e0: 53b5 9bbc b4ad 033c 54c6 1c3c a702 183d
000002f0: 67ef 37bd 5820 bbbb fbff 013d 6c3e 4e3c
00000300: 0dd0 20bd 1646 883c 90f6 e23b e608 f83c
00000310: 20b6 b6bc 1a7b 40bd 0c9d 8bbc 1fdd 3cbd
00000320: 62df c23c e0a6 babc 47df 1d3d dd7a 14bd
00000330: 9027 cfbb 6334 b5bc 7975 0f3d 18f9 37bc
00000340: 78b3 6dbc 274c eabc 800a b7bb 7227 8d3c
00000350: b88b 2abd 6395 c4bc 1842 17bc 329e fc3c
00000360: dc79 503c c8b7 17bc e3d1 bdbc e3b6 f5bc
00000370: ded9 ec3c f6e2 83bc e36c 34bd 0410 523c
00000380: 5016 18bd ecce 543c 6bb1 29bd e821 e3bb
00000390: 5523 0e3d 3c38 03bd d3fb 3fbd 341e 1c3c
000003a0: 7054 bc3b 32c8 873c 7399 2abd 4191 003d
000003b0: e628 0dbd abaf 423d e004 293c da07 c3bc
000003c0: a545 3dbd fd0c 3b3d c0ae 47bc a867 153c
000003d0: 79c1 463d 30b5 10bb 2256 b53c 1844 053c
000003e0: 61c3 483d da4a 0dbd 58b8 5fbc ccf2 6abc
000003f0: 606e 0c3c 090c 2d3d ea9b c23c a590 363d
-0.016629152 -0.032899812 -0.0073481575 -0.010711312 -0.01756658 -0.032023028 0.02826799 -0.01939999
0.024168137 0.0067807324 0.03452747 -0.01691553 -0.031654455 -0.033928692 -0.046544757 -0.0075463764
0.023443665 -0.0090659745 0.018307727 -0.021004224 0.020987365 -0.00085105747 -0.04635461 0.010228533
0.043388512 -0.034140542 0.04525355 -0.043518424 -0.015134476 -0.024227876 0.004617948 0.009634513
0.02825221 -0.023127466 -0.039779447 -0.045650166 0.013810221 0.023039807 0.021820117 -0.017638326
0.021547604 -0.04005446 0.021304268 0.039085273 -0.022178901 -0.021366423 0.020944532 -0.042721827
0.04833025 0.0070026927 0.013815705 -0.018773556 0.04593951 -0.031036807 -0.005990453 -0.049764257
-0.009603731 -0.02889328 0.0033904724 -0.03264307 -0.045145135 0.017740224 -0.005705852 0.02824409
0.042749595 -0.012320273 0.015764896 -0.042022057 -0.03552695 0.023576412 -0.041731536 -0.020855611
0.039248314 -0.03437851 -0.016858898 -0.027340919 -0.01568494 -0.02972349 0.010649938 0.007106375
-0.036060363 -0.023021013 -0.0115398355 -0.0445633 -0.005783759 0.010930996 -0.038288496 -0.017543864
-0.009115033 -0.013566054 -0.025274737 0.0003537424 -0.037810743 0.034855086 -0.007826947 0.018381272
0.033018205 0.030410443 0.030752365 0.03709087 -0.016087241 0.014837164 0.019247923 0.01699907
0.045816395 0.04546794 -0.009820592 -0.029503077 -0.03603115 0.005156122 -0.0456399 0.010526411
0.015661936 0.04758135 -0.030975604 -0.04144467 -0.01196621 0.027482752 0.018326838 0.017278966
0.022567157 -0.009038843 -0.031393874 0.012737159 0.0349808 -0.016858548 -0.021975344 0.026153084
0.03979938 0.027263258 0.028335784 0.047439333 0.0497323 0.01251908 -0.026154613 -0.031094356
0.020774256 -0.047538467 0.019012641 0.046822045 0.016097132 0.023560468 0.012003511 -0.009021122
0.045811813 -0.040433712 -0.006689351 0.0017194673 0.027051393 0.02297822 -0.024819965 -0.03231418
-0.0065846853 -0.048874658 -0.036365002 -0.0064582117 0.027550977 0.028678078 -0.033422858 -0.018288702
-0.044336535 -0.03486421 -0.0439799 0.04629487 0.038923908 0.036888193 0.013960589 0.0013369508
0.017225776 0.006719183 0.009219877 0.01367129 -0.032156724 0.044123966 0.04560494 0.0023876205
-0.0051101744 0.019398991 -0.014465135 -0.02953747 -0.01828764 0.016003463 0.018368158 0.004033275
-0.01900736 0.0080370195 0.0095687695 0.037111904 -0.044906046 -0.005710643 0.031738263 0.012588125
-0.039260913 0.016634982 0.006926365 0.03027768 -0.02230364 -0.0469924 -0.01704266 -0.046109315
0.023788158 -0.02278465 0.038543012 -0.036249984 -0.006321855 -0.022119706 0.03502414 -0.011228822
-0.014508121 -0.028600765 -0.0055859685 0.017230723 -0.041637152 -0.023997014 -0.009232067 0.030837152
0.012724366 -0.009260125 -0.02317137 -0.029994434 0.02891248 -0.016099434 -0.044049155 0.012821201
-0.037130654 0.012988787 -0.041428965 -0.006931532 0.034701664 -0.03203605 -0.046871018 0.009528685
0.0057473704 0.016574953 -0.041650247 0.031388525 -0.034462832 0.04753081 0.010316104 -0.023807455
-0.046208996 0.045666683 -0.01218766 0.009118952 0.048524354 -0.0022080652 0.022135798 0.008133911
0.049014453 -0.034495212 -0.013654791 -0.014340114 0.008571237 0.042247806 0.023755986 0.044571538

bias f4 [120]
00000000: 9a84 d43c cf06 1b3d 8188 0f3d 0d42 fabc
00000010: 68f2 8b3b b64c ef3c 1983 0a3d fd20 edbc
00000020: 00c2 27bd aa7d 2bbd 1d2f 313d cd77 45bd
00000030: 97ae 103d c5e2 44bd 405b 53ba e477 713c
00000040: fb47 14bd e1d6 103d 02fc df3c bae2 d8bc
00000050: 4ad0 a6bc e14d 043d 4a17 3cbd b08a 45bb
00000060: 2ad8 d6bc 1acf ac3c cee0 ca3c 6282 fb3c
00000070: c243 fa3c d836 383c c0d0 e83a 2abc a6bc
00000080: 4ce8 0dbc 202d 023b da27 b83c 1a6a e13c
00000090: d4be 4bbc d2ef b33c c027 e23a 131f 4abd
000000a0: 7164 4b3d 8c17 5bbc c011 873b 8055 08bc
000000b0: 9334 e8bc 90d1 e83b 808d 133c 7194 0a3d
000000c0: 1e9f 923c 93d0 fabc d3b1 acbc 9645 e53c
000000d0: 3c63 513c 161a cd3c f057 d6bc fcaa 5c3c
000000e0: 0335 163d 5440 38bc 9225 36bd fd6e 39bd
000000f0: d821 cc3b d2e1 8a3c 45a3 16bd afc9 283d
00000100: e23f ca3c 2834 71bc 40c8 edbc b85c 3dbc
00000110: 6d18 31bd 3095 683b cc97 21bc fdba dcbc
00000120: a88e 90bb 6042 25bc a59b 0c3d 14e9 7cbc
00000130: 925d b53c d2d8 813c e80b 4c3c be1d c03c
00000140: 8b0d 3dbd e8f5 2cbd a86d 393c eb66 2ebd
00000150: a4fc 663c 8068 033b eca2 193c 2375 103d
00000160: e0ee 56bb a259 f43c 68f4 1dbd e650 e03c
00000170: 34a1 58bc 584f eabb 00d3 39bb e9d3 483d
00000180: 8b31 14bd 781f 4fbc 9b27 243d 75c6 27bd
00000190: 4773 a6bc 00af 1b3c 604f 6dbc 4813 42bd
000001a0: d44b 80bc f362 bbbc 3b61 393d e869 60bc
000001b0: 6153 1a3d 9d53 fdbc 9065 8abc fa74 b3bc
000001c0: 3231 a63c 5dcf d0bc aa49 a63c d083 67bb
000001d0: 759a 4c3d 8e28 813c 9aff a23c c0dc ff3a
0.025942136 0.03784829 0.03504229 -0.030549074 0.0042708404 0.029211383 0.03381643 -0.028946394
-0.040956497 -0.04186789 0.04325782 -0.048209954 0.03532275 -0.048067827 -0.00080626085 0.014738057
-0.03620146 0.035361174 0.027341846 -0.0264753 -0.020362992 0.032300834 -0.045920648 -0.0030142479
-0.026226122 0.021094847 0.024765398 0.03070182 0.030549888 0.0112435445 0.0017762408 -0.020353395
-0.008661341 0.0019863322 0.02247994 0.027516413 -0.012435634 0.021964941 0.0017254278 -0.04934604
0.049656335 -0.013372313 0.004121989 -0.008321166 -0.028345382 0.00710506 0.009005904 0.03383297
0.017898139 -0.030617034 -0.021080887 0.027987283 0.012780007 0.025036853 -0.026164979 0.0134685
0.03667165 -0.011245806 -0.044469424 -0.045271862 0.0062296204 0.016953383 -0.0367768 0.041207965
0.024688665 -0.014721908 -0.02902615 -0.01155775 -0.043236185 0.0035489313 -0.009862851 -0.026944632
-0.004411537 -0.010086626 0.03432812 -0.0154364295 0.022139344 0.015850458 0.012454011 0.023451682
-0.046155494 -0.042226702 0.011317648 -0.04257862 0.01409832 0.00200513 0.0093772225 0.03526796
-0.003279619 0.029827897 -0.038563162 0.027382325 -0.013222028 -0.007150572 -0.0028354526 0.04903022
-0.03618006 -0.01264178 0.040076833 -0.040960748 -0.02031864 0.0095021725 -0.0144842565 -0.04738167
-0.015661158 -0.022874331 0.04525874 -0.013697125 0.037677173 -0.030923659 -0.016894132 -0.021906365
0.02028713 -0.025489504 0.020298798 -0.003532637 0.04995199 0.015766408 0.019897271 0.0019520745

weight f4 [84, 120]
00000000: 3d4a 8dbd 9f1e 88bd 3bdc 11bd 2b4e 99bd
00000010: 78f9 ccbc 8c91 bdbc 87bb 9dbd f5ae 9dbd
00000020: 1883 b53c fc02 503d 8c88 89bd 345a 4b3d
00000030: 620e a23d c01f b9bd eac0 823d 9014 4a3c
00000040: 6cd1 4cbd 13a0 34bd 40fd f13b 9072 babb
00000050: 565b a63d f493 9abc 8ae4 b43d 84f0 323d
00000060: 0888 4dbd 506c d4bc 8072 343b a001 223d
00000070: 8094 bfba a2ca 25bd aa34 8fbd 8de7 8abd
00000080: be48 9e3d 5771 48bd f8df 733d 302e 303d
00000090: f8e1 463d ae57 833d a440 b7bc ce8d 7abd
000000a0: c0a4 acbd 6ee4 2fbd 1fc9 3cbd 38c9 9fbd
000000b0: 742b 113d fa5b 883d 5c8b 77bd 1a1a b33d
000000c0: e806 bf3c b800 5abd 90f3 123d 605b 89bc
000000d0: 64a2 aabd 80e3 203a e8c8 423d 60d3 6a3d
000000e0: 1e1c 953d a04a fb3c 99f1 19bd 34c5 e33c
000000f0: 4eeb 9abd e1cb 88bd a8ec 47bd 789f 953c
00000100: 7ea0 a8bd 1909 83bd 807b e63b 3c26 663d
00000110: 648d 8abd 60b5 e73b 5cb8 1d3d edee 8bbd
00000120: 3039 aebc cc57 1b3d cc47 3d3d aec1 b23d
00000130: 00d2 72bb 6a87 973d 585c c53c 200d 8d3d
00000140: fcb4 b83c b883 913d be5c b13d 20aa 5bbd
00000150: cfaa 9ebd e67a 46bd b89e 61bc 5775 9dbd
00000160: 807b 11bb f088 633c d08f 813b 06ba 083d
00000170: 7079 49bc 468c 49bd da64 a03d a8e0 8c3d
00000180: 5c08 a73d c849 fc3c 2056 573b 94cc dfbc
00000190: cfbf 51bd 5895 dcbc 18d7 373d 1829 243d
000001a0: 8dc8 47bd 4cb7 a13d 8f3c 8dbd 8467 89bc
000001b0: dc25 7c3d 1899 853d 9486 633d 54db 103d
000001c0: e40a 903c 4043 a5bd 3b99 59bd 1a40 9fbd
000001d0: 4baf 61bd e3cd 98bd f077 6c3d 8c90 693d
000001e0: 56da 54bd 64ff 5d3d bb27 babd 89c8 30bd
000001f0: 168f adbd 61b1 3abd 6cc5 f7bc 80b5 eb3a
00000200: b07e 5d3c 64be 353d d8bf bb3c 91c5 9cbd
00000210: 0ec9 953d 74e8 b73d 30d6 113c 00d6 90bd
00000220: 6c2c 613d 202f 29bc cd0d 20bd d4a3 eebc
00000230: d8fa ce3c a03d b23d cac1 8f3d e2d2 8e3d
00000240: 348e b53d 105e 5a3d 206f 383d c044 8a3d
00000250: b62e b83d 0eae 9bbd 1479 183d b4fe 4e3d
00000260: 7711 19bd 2bc8 84bd 68aa 05bc 2878 cc3c
00000270: 2258 903d a0db 9fbd 078d 22bd 1ea4 83bd
00000280: a091 243d 5446 9ebc 5061 ea3c b435 293d
00000290: b7d7 82bd da2b b13d 2e9a 823d 98a1 b53d
000002a0: 0c87 b2bd 1e81 92bd d057 2d3d 6009 6b3d
000002b0: c871 1b3c 98d4 37bd d0fc 263d d825 12bc
000002c0: fa30 a03d 2485 c63c 3c37 433d 2c6e 9e3d
000002d0: 547c a03c 500c 11bc 2084 5c3d c830 573c
000002e0: 8046 e53b 2b76 a6bd 3ad5 ad3d 043a a43d
000002f0: f0eb 393d 00de 88bd cf85 20bd 4846 753d
00000300: 3015 1f3d 0cb8 0b3d 7235 9b3d e0be 243d
00000310: 34f1 f23c 3ebe b83d b840 333d dcef b03d
00000320: ceb3 92bd 0036 823a 432c 61bd da66 a63d
00000330: a497 84bd 60ba 66bd 58d9 9dbd f6b6 a0bd
00000340: f086 973c 4090 dd3a 96e1 97bd 9028 d4bb
00000350: 8836 db3c f4dd 1f3d 807e 0c3d 5cf2 b43d
00000360: c481 1fbd d03e c9bb 78ed 3d3c c78a 73bd
00000370: 298b 84bd 802d 313d 88e6 703c 447f 463d
00000380: 241f b5bc dbe2 56bd 20df 3bbb 2c73 97bc
00000390: c08c 373b 20bc 9c3d d0e7 b13d a0c7 26bc
000003a0: b4fe 4f3d dc29 a23c a388 2abd 2450 d3bc
000003b0: 6474 123d 628c 933d aa1b 0bbd b01d 433c
000003c0: 4db9 a9bd 002f a73d c8f6 123d 8c4e 2b3d
000003d0: 5ed3 0bbd b21f f1bc c084 abbb 04e4 e1bc
000003e0: 40b0 1c3d d01b 803b 48f3 383d fe50 a23d
000003f0: 899a 3dbd b8c8 c33c 5254 8fbd d171 55bd
-0.068989255 -0.066464655 -0.03561042 -0.074856125 -0.0250213 -0.023140691 -0.077017836 -0.07699386
0.022157237 0.050784096 -0.067154974 0.04964657 0.079128996 -0.09039259 0.06384452 0.012334004
-0.050004408 -0.04409797 0.007384926 -0.0056899264 0.0812289 -0.018869378 0.08832653 0.043686405
-0.050178558 -0.025930554 0.0027534068 0.03955233 -0.00146164 -0.04047645 -0.06992467 -0.06782446
0.07728718 -0.048936214 0.059539765 0.043012798 0.048555344 0.06413208 -0.02236969 -0.06117039
-0.08429861 -0.042942457 -0.04609024 -0.07802051 0.03544183 0.06658168 -0.060435638 0.08745213
0.023318723 -0.05322334 0.03587681 -0.016767204 -0.08331755 0.0006137416 0.04755488 0.05733049
0.072807536 0.030675232 -0.03758392 0.027803995 -0.07564412 -0.06679512 -0.048809677 0.018264517
-0.082337365 -0.063982196 0.0070337653 0.056188807 -0.06765249 0.007071182 0.038505897 -0.06832681
-0.021267503 0.037925526 0.04621105 0.08728348 -0.003705144 0.07398875 0.024091884 0.06887269
0.022547238 0.071052015 0.08660267 -0.05362904 -0.07747423 -0.04845705 -0.013770752 -0.076883964
-0.0022198856 0.013887629 0.0039539114 0.03338053 -0.012297019 -0.04920604 0.07831736 0.06878787
0.08155891 0.0307969 0.003285773 -0.02731923 -0.051208314 -0.026926681 0.044882864 0.040078253
-0.048775245 0.07896289 -0.06896316 -0.016772993 0.061559543 0.06523341 0.055548266 0.035365418
0.017583318 -0.080694675 -0.053124648 -0.07775898 -0.055098813 -0.07461145 0.05773157 0.057022616
-0.051966034 0.054198638 -0.09089609 -0.043159995 -0.08474557 -0.045579318 -0.030245505 0.0017983168
0.013518974 0.044371024 0.022918627 -0.0765487 0.07313739 0.08979884 0.008901164 -0.07072067
0.054974005 -0.010326177 -0.03907566 -0.029130854 0.025266096 0.0870316 0.07019384 0.069738165
0.08865014 0.05331236 0.045027852 0.06751394 0.089932844 -0.07601558 0.037224844 0.050535873
-0.03737017 -0.064834915 -0.008158304 0.024959639 0.0704806 -0.07805562 -0.039685275 -0.06427787
0.04017794 -0.019320644 0.028610855 0.04131098 -0.063888006 0.08650942 0.06377064 0.08868712
-0.087171644 -0.071535334 0.042320073 0.057381988 0.009487577 -0.04488048 0.040768445 -0.008920155
0.078218415 0.024233408 0.047660097 0.07735857 0.019590534 -0.008853033 0.05383694 0.013134189
0.0069969296 -0.081280075 0.08487935 0.08018878 0.045391023 -0.06682968 -0.03919011 0.05988148
0.038838565 0.034111068 0.07578553 0.040221095 0.02965603 0.09020661 0.043762892 0.086394995
-0.07163201 0.0009934306 -0.054973852 0.08125086 -0.06474236 -0.056330085 -0.07707471 -0.07847397
0.01849696 0.0016903952 -0.07416074 -0.006474562 0.026759401 0.03903003 0.034300327 0.08835289
-0.038942114 -0.006141521 0.0115922615 -0.05945852 -0.06471855 0.043256283 0.0147034 0.048461214
-0.022109576 -0.05246244 -0.0028666928 -0.018487535 0.0028007478 0.076530695 0.08686793 -0.01017943
0.050780013 0.01979535 -0.041634213 -0.02579505 0.03575553 0.0720451 -0.03396193 0.0119089335
-0.082872964 0.081632614 0.03587988 0.041822955 -0.034137122 -0.029434059 -0.005234331 -0.027574547
0.038254023 0.0039095655 0.045153886 0.07925604 -0.046289954 0.023899421 -0.06998505 -0.052110497

bias f4 [84]
00000000: 8d23 9dbd 0e08 913d 40bb 353d d233 a23d
00000010: 970d 9dbd ce51 b33d 3c2c 963d a1d2 91bd
00000020: b4f2 81bd 7cfb 713d e904 a0bd c877 9a3c
00000030: 4884 393d 2058 82bc 60dd 00bc 7770 a2bd
00000040: f52c 0cbd 6475 36bd 546f eabc fc8d 06bd
00000050: 2a3a b23d 78d7 733c de00 a73d 400d 873d
00000060: 4cc1 be3c 347c e73c 7470 5f3d b8a4 123c
00000070: a0a3 5a3d b8ad 98bd 718a 9dbd 80b7 38bc
00000080: 90b9 16bc f09f ab3d 5b87 37bd 9045 363d
00000090: 30ce 80bb 2878 6c3d 1cc0 36bd 8028 2abc
000000a0: 76d4 ae3d 4cc5 2f3d 2419 953c dce3 86bd
000000b0: 6cf4 a4bd 6990 1dbd a42e 4abd dc17 af3d
000000c0: a894 56bc 975c 26bd f1d3 a6bd 20f9 bdbc
000000d0: 2052 ffbb e461 99bc 2853 283c eb84 47bd
000000e0: c2de 9bbd b870 723d 5847 c53c 7205 a5bd
000000f0: b688 803d ba8a 8a3d 14ac aa3c 78e0 ac3c
00000100: a47a 21bd 50a9 b03c 2fae 3dbd 5ca6 de3c
00000110: c865 c63c f8fa 243d 0071 1b3d 76c9 57bd
00000120: 48e3 693c 2c88 613d 9057 0b3c ca64 b4bd
00000130: 00d1 0cbc 3290 8c3d bcbe 723d 006d f8b9
00000140: 547c 64bd 5d91 42bd 34d2 91bd df41 9abd
-0.076727964 0.070816144 0.04436803 0.0792004 -0.07668608 0.087558374 0.07332656 -0.071202524
-0.0634512 0.059077725 -0.078134365 0.018855944 0.04529217 -0.015911162 -0.00786528 -0.07931607
-0.034222562 -0.044545546 -0.028617539 -0.03285025 0.087025 0.014882915 0.08154462 0.06594324
0.02328553 0.028257467 0.054550603 0.008950405 0.0533787 -0.07455009 -0.07692421 -0.011274219
-0.009199515 0.08380115 -0.04480682 0.044499934 -0.0039308295 0.057731777 -0.044616804 -0.0103856325
0.085366175 0.042912766 0.018200465 -0.065864295 -0.08054432 -0.0384678 -0.049360886 0.08549473
-0.013096966 -0.040615644 -0.08145893 -0.023190081 -0.0077917725 -0.018723436 0.010273732 -0.048710745
-0.07610847 0.05918953 0.02408187 -0.08057679 0.062760755 0.06764741 0.020834006 0.021103129
-0.0394236 0.02156511 -0.046308693 0.027178936 0.024218455 0.040278405 0.037949562 -0.052682362
0.0142753795 0.055061504 0.008504763 -0.088082865 -0.008594751 0.068634406 0.05926393 -0.00047383457
-0.05578263 -0.04750191 -0.07120171 -0.07532095

weight f4 [10, 84]
00000000: f68e 1d3d 4278 a6bd 0655 233d b839 dcbc
00000010: 0d0f 993d 50e8 12bd 5992 b23d 58f1 84bd
00000020: 3748 40bd e4e9 3abd cc49 8abd 1dd9 b5bd
00000030: e6f0 0e3d 5448 c13c c777 86bd 44e5 b73c
00000040: aa36 bdbd 159b 5abd 8f12 d73d ada2 bdbd
00000050: bc4b 933c fe16 5b3d 1278 7ebd 9613 383d
00000060: 6b73 cb3d d46a 15bd f7a8 a73d 7fd3 a83d
00000070: a631 a8bd 10a2 26bc b06f 863b 3eb1 793d
00000080: 7ead c3bd f4fd 853c fe10 91bd f107 c33d
00000090: da0f 433d 67e9 c0bd e29e 673d 485c 19bc
000000a0: cb09 cabd 72dc c0bd 2c71 863c 7ce0 b1bd
000000b0: bcf0 6cbd 6778 843d 3bc9 69bd db63 d1bd
000000c0: 07b7 933d f16f 9a3d eb23 af3d f34b adbd
000000d0: f6db 7c3d 690c 8ebd eaf0 25bd 228d a7bd
000000e0: aab7 5e3d f96e de3d c924 b13d 9aaa 57bd
000000f0: 9c61 e33c 442a 29bd ed09 a4bd 80d3 29bd
00000100: 03d4 c9bd 903e 613c 183b f8bc 885b 423c
00000110: 421f 783d efe8 a8bd 26f0 c4bd 1857 b3bd
00000120: b4c7 1ebd c0ef e0bc 4d5b b3bd 8069 03ba
00000130: 517c ad3d 385f 98bc 740c a7bc 20aa aebc
00000140: 7869 73bd 785c fbbc 0f69 bd3d dd5c 983d
00000150: 9fe2 ce3d 08c1 32bd 2f55 903d eaa6 3ebd
00000160: 363d 053d 6768 ce3d 42b9 523d 97fd 9fbd
00000170: d849 543c 8c06 953c 2309 ce3d 1fac cebd
00000180: e855 07bc bdec 85bd de86 39bd 4fbf dd3d
00000190: 14ec c43c a06f 90bd 4226 78bd 7666 92bd
000001a0: a511 8d3d c41a 90bc 8658 0a3d 1dc6 9d3d
000001b0: 065e 173d 0830 68bc b292 603d 8a3c 99bd
000001c0: 9cea 993c b8fa 9dbd 8e86 5c3d 62e2 a3bd
000001d0: 50c6 1f3c d134 d43d d6f2 2fbd 2302 903d
000001e0: 72da 3b3d 7865 763c 385b 67bc c04c bcbb
000001f0: c668 86bd 7952 ab3d 3c95 9dbd c35d b73d
00000200: e1e8 90bd 9c41 cabd 2ae9 4dbd cf36 923d
00000210: 4c5b bfbd 0023 0cbb b541 843d c7cc 4abd
00000220: 78ae a9bd b1da d03d 1e47 dfbd 5056 9abc
00000230: bc92 90bc 3889 f0bc 5e78 c9bd 0c7b c4bd
00000240: dca1 c2bc 9558 d83d 212a af3d 14c9 abbc
00000250: 0c22 e9bc 1046 90bd 1d69 debd b362 49bd
00000260: 9490 953c 4b50 93bd a8dd 19bd 99fe dc3d
00000270: 8b9d c93d e22d 653d 22fa 373d 2358 a93d
00000280: 42c6 693d 5813 10bc 7015 4dbd 0038 8f3a
00000290: 9622 753d be53 723d 6824 553c bf15 aabd
000002a0: c8f3 78bc 56d2 95bd 1147 d2bd e01b e83b
000002b0: a604 52bd 47c8 aa3d d13c d83d 3a8c 133d
000002c0: ce80 7cbd 24c0 99bd 59ce 993d 5a07 96bd
000002d0: 2a0d 0bbd ccb1 4bbd 9680 003d 7686 613d
000002e0: a4ee 893c 1a7b 2f3d bcae a6bd 7a93 c1bd
000002f0: 5419 94bd 03ae 923d e771 ae3d 5217 c9bd
00000300: 0ebf 2c3d 66e0 d3bd 9c8b b7bc fab9 023d
00000310: c026 b4bd 630e 853d 8777 dabd 2890 b4bd
00000320: ca3d bebd c2f5 103d d401 833c af63 c13d
00000330: 285f aebd 30e0 893b 0365 d93d 5595 d63d
00000340: 16c2 98bd 5cb8 b3bd 83b4 a33d fe8e 6f3d
00000350: 30c1 e03b 00a3 563b cbbf ae3d 7bb3 9d3d
00000360: 86aa d1bd d3cc 83bd eedc 0e3d 8372 8b3d
00000370: e622 0a3d d6c0 423d 359f 8b3d ec33 dc3c
00000380: 402d c1bd 833f c93d b2b6 76bd caae 603d
00000390: 3b94 d93d 683e 16bd b00f 323c 422a 23bd
000003a0: 1c00 99bd 0ce2 f23c 8540 9c3d fac9 47bd
000003b0: 35ce a33d 34f6 b23c 6d91 88bd 00a1 1abb
000003c0: 19fc bdbd b898 6a3c ca7c abbd c4f1 cf3c
000003d0: abd8 d13d 14f5 8bbd 0ee9 573d b8f9 dcbc
000003e0: dd14 8d3d 5ab6 333d e201 273d 02f0 283d
000003f0: 80a0 55bb e65a 4b3d 987d a0bd b386 d33d
0.038466416 -0.08128406 0.039876007 -0.026882991 0.07473574 -0.03586608 0.0871932 -0.06491345
-0.04694387 -0.04563321 -0.06752357 -0.08879302 0.034897707 0.023594059 -0.065658145 0.02244819
-0.09238942 -0.053370554 0.10501587 -0.092595436 0.017980449 0.053488724 -0.062126227 0.044940554
0.099341236 -0.036478832 0.08186524 0.08243465 -0.08212595 -0.010170475 0.0041026697 0.060960047
-0.095545754 0.016356446 -0.07083319 0.09522999 0.04762254 -0.09419518 0.056548007 -0.0093603805
-0.09865149 -0.094170466 0.016411386 -0.08685395 -0.05784677 0.064682774 -0.057076674 -0.10224124
0.07212644 0.075408824 0.08551773 -0.08461752 0.06173321 -0.06935961 -0.040512957 -0.08181216
0.054374374 0.1086101 0.08649594 -0.052652933 0.027756505 -0.041300073 -0.08009706 -0.041461468
-0.09854891 0.013747826 -0.030301616 0.011862643 0.060576685 -0.082475536 -0.09616117 -0.08756846
-0.03876467 -0.027458072 -0.087576486 -0.0005012974 0.08470977 -0.018600091 -0.02039168 -0.021321356
-0.059426755 -0.030683741 0.09248554 0.07439587 0.10101818 -0.04364112 0.070474975 -0.0465459
0.03252908 0.10078507 0.051446207 -0.0781204 0.012957059 0.018191598 0.100603364 -0.10091423
-0.008260228 -0.06539295 -0.045294635 0.10827505 0.024038352 -0.07052541 -0.06058336 -0.07148449
0.06888131 -0.017590888 0.03377583 0.07703803 0.036954902 -0.014171608 0.0548274 -0.0748225
0.018788628 -0.077138364 0.05383926 -0.080021635 0.009751871 0.103616364 -0.042956196 0.070316575
0.045862623 0.0150388405 -0.014120869 -0.005746454 -0.06562953 0.0836534 -0.0769448 0.089534305
-0.07075668 -0.09875795 -0.05027119 0.0713936 -0.09343585 -0.0021383166 0.06457845 -0.049511697
-0.082852304 0.10197962 -0.109022364 -0.018839985 -0.017648093 -0.029362306 -0.09837411 -0.09593782
-0.023758821 0.10563771 0.08552957 -0.020969905 -0.028458618 -0.07044613 -0.108598925 -0.049166393
0.018257417 -0.07193049 -0.037564903 0.10790748 0.09844502 0.05595196 0.04491628 0.08268764
0.05707384 -0.008793674 -0.050069273 0.0010926723 0.059847437 0.059161894 0.013009168 -0.08304929
-0.015194841 -0.07315509 -0.10267461 0.007083401 -0.051273964 0.08338981 0.10558475 0.036022402
-0.061646275 -0.07507351 0.07510061 -0.07325621 -0.0339481 -0.049730107 0.03137263 0.055059873
0.016837426 0.04284201 -0.08138797 -0.09451957 -0.072313935 0.07162096 0.08517819 -0.09818901
0.04217439 -0.10345535 -0.022405438 0.031915642 -0.087964535 0.06496885 -0.10667329 -0.08816558
-0.09289129 0.035390623 0.015992083 0.09442841 -0.08514243 0.0042076334 0.106149696 0.104777016
-0.07458894 -0.08775398 0.07993414 0.058485977 0.0068589672 0.0032750964 0.08532675 0.07700249
-0.10237603 -0.064355515 0.034878664 0.06808951 0.033724688 0.047547184 0.06817476 0.026880227
-0.09432459 0.09826567 -0.060232826 0.05485419 0.10623976 -0.03668061 0.010867998 -0.039835222
-0.07470724 0.029648803 0.076294936 -0.048776604 0.07998315 0.021845914 -0.06668363 -0.0023594499
-0.092765994 0.014318638 -0.08373411 0.025383838 0.10246404 -0.06833854 0.052712493 -0.026974544
0.06888745 0.043875076 0.04077328 0.041244514 -0.0032596886 0.049647234 -0.07836455 0.10328426

bias f4 [10]
00000000: 7ff8 d43d 8d3c a03d 4975 913d 66f4 2fbd
00000010: c6ff 613d 605e d0bb 7214 0e3d 9a8c d0bd
00000020: d9b0 d53d 6ab2 7e3d
0.10398959 0.07824049 0.071024485 -0.042957686 0.055175565 -0.0063589066 0.034687467 -0.101830676
0.10434122 0.062181868
