Course-Resources/webdev/testnn.pt (torch, 250887 bytes, 10 tensors)

weight f4 [6, 1, 5, 5]
000000 80 bb 67 3c 2d 12 41 3e 5e 5d ea 3d 8c 52 6f bd
       0.014143825 0.1885459 0.1144359 -0.058428332
000010 b6 6d ac 3d 00 03 47 be 61 7c 35 3e e6 87 db 3d
       0.08419363 -0.19434738 0.17723228 0.1071928
000020 5b 56 2d be 89 07 47 3e b9 7c 00 3e 88 6b 30 bd
       -0.16927473 0.19436468 0.12547578 -0.0430713
000030 20 95 09 bd ac 35 87 bd 57 dc 02 3e 92 b3 ff 3d
       -0.033589482 -0.06602034 0.12779365 0.12485422
000040 11 8d 08 3e 40 a1 21 be a7 a0 d3 bd 34 7d 41 3d
       0.13335063 -0.15784168 -0.103333764 0.047238544
000050 32 e6 9d 3d c1 2d 14 3e 51 e8 28 3e ab 57 2a be
       0.07709922 0.14470579 0.16494872 -0.16635005
000060 e8 87 32 3d 63 54 17 be ac ae 13 bd 61 6a 30 3e
       0.04358664 -0.14778285 -0.036055252 0.1722808
000070 fa ab d9 bd 5c 12 73 3d f4 05 14 bd 3b 0e 00 3e
       -0.10628505 0.05934368 -0.03613849 0.12505428
000080 00 ee 5c ba 88 16 7e bd cd 31 f5 bd 1d c4 a5 bd
       -0.0008427799 -0.062033206 -0.11972389 -0.08094046
000090 a8 c2 99 3c f3 f7 2e be 67 9e 2f 3e ad 71 3b be
       0.018769577 -0.17086773 0.1715027 -0.18305083
0000a0 b6 4a ea 3d a0 fb 45 be 12 7a b7 3d 7d 7e 23 3e
       0.11440031 -0.19334269 0.0895883 0.1596622
0000b0 60 20 b1 bb 81 4a 43 3e 17 64 47 be b4 12 4f 3d
       -0.0054054707 0.1907139 -0.19471775 0.050554946
0000c0 34 37 23 3d 52 c0 fa 3d 80 6e a1 3a a4 65 62 3d
       0.039847568 0.122437134 0.0012316257 0.055272713
0000d0 f6 e1 80 3d 4e 9c da 3d 00 c2 9f bc 11 4e 08 3e
       0.06293099 0.10674344 -0.019501686 0.1331103
0000e0 a6 e2 14 be f0 a6 d5 3c 62 3f 32 be a2 05 b9 3d
       -0.14539585 0.026080579 -0.17406991 0.090342775
0000f0 ed a6 c0 bd 91 fe 3c 3e 65 65 09 3e 9d 80 17 3e
       -0.094068386 0.18456484 0.13417585 0.14795156
000100 f8 aa 4a 3d f4 95 5e 3d cb 23 46 be 2d fc b0 bd
       0.049479455 0.054342225 -0.19349591 -0.08641849
000110 00 77 a3 ba 07 fa 42 3e 36 55 0e be 80 88 55 bb
       -0.0012471378 0.1904069 -0.13899693 -0.003258258
000120 09 e4 23 3e 74 23 6d bd f2 1b f6 3d 6d d4 af bd
       0.16004957 -0.05789514 0.12017049 -0.08585439
000130 de 32 9b 3d 5e 79 86 3d b3 e6 e7 bd 1f ee 09 3e
       0.075780615 0.06566118 -0.11323299 0.13469742
000140 d9 21 4b 3e d5 0f 26 3e 4a 0e 9c 3d 98 15 19 3d
       0.1983713 0.16216977 0.07619913 0.03737411
000150 e8 25 da bc 2c 9e 74 bd f3 00 01 3e 44 32 81 bd
       -0.026629403 -0.059721157 0.12598018 -0.063084155
000160 31 af 35 3e 49 5c 2f 3e 00 e4 34 bb e0 64 00 3d
       0.17742611 0.17125048 -0.002760172 0.031346202
000170 48 c6 4a bd 50 fe 76 bc 56 fe b7 3d 31 79 3e 3e
       -0.049505502 -0.015075281 0.089840576 0.18600918
000180 51 c2 04 3e 00 31 e5 3b 7f a7 45 be b9 69 0d 3e
       0.12964751 0.0069943666 -0.19302176 0.13809861
000190 90 dc 89 bc 98 01 91 bc 13 28 0e be b5 02 04 be
       -0.016828805 -0.017700955 -0.13882475 -0.12891658
0001a0 0c 61 7d 3d e3 d7 33 be b7 35 eb bd 06 00 b7 3d
       0.06186013 -0.17562823 -0.11484855 0.08935551
0001b0 7f ac 04 3e 34 1c 16 3d 50 be aa bd 80 2c 25 3c
       0.12956427 0.03664799 -0.083370805 0.01008141
0001c0 83 95 47 3e 45 e2 48 3e ab f8 12 3e fb fe 32 3e
       0.19490628 0.19617565 0.14352672 0.1748008
0001d0 68 9e 05 bd b6 40 a4 3d 14 c0 29 bd b9 25 47 3e
       -0.03262177 0.08020155 -0.041442946 0.19447984
0001e0 e5 2a 08 3e 68 f0 96 bc ea 07 a8 3d 0c 51 2b bd
       0.13297613 -0.018425182 0.082046345 -0.04182534
0001f0 38 2a 1e bd 93 38 28 be 18 0b 24 bd cf 87 41 3e
       -0.03861448 -0.16427831 -0.040049642 0.18899463
000200 a8 fe fc bc e2 d7 84 3d 7e 00 e6 3d 8c e6 63 bd
       -0.030883148 0.06486489 0.112305626 -0.05563979
000210 98 cc 96 bc a8 fd 33 3d 18 04 57 bd 00 3c b6 bc
       -0.018408105 0.043943077 -0.05249414 -0.022245407
000220 38 53 47 be 35 87 05 3e 68 85 6f bd 46 75 81 bd
       -0.19465339 0.13039859 -0.058476835 -0.06321196
000230 da 1c c7 bd 6c c2 5f bd 80 9c 69 bd 41 1b 22 3e
       -0.097223 -0.054628775 -0.057034016 0.15830709
000240 98 5b 83 3c 0d c0 f0 bd a0 91 51 bc 30 64 4b bc
       0.016034886 -0.11755381 -0.012791067 -0.012414023
000250 4d 20 11 3e 40 eb fb 3c
       0.14172478 0.030751824

bias f4 [6]
000000 f3 85 ef bd ab 84 18 be c6 b5 d2 3d b0 fe fd 3c
       -0.11695471 -0.14894359 0.10288577 0.031005234
000010 1b 51 4a 3e 56 28 f4 3d
       0.19757502 0.11921756

weight f4 [16, 6, 5, 5]
000000 00 e0 03 3a c4 29 8a bd 40 6f d6 bc 52 bf a6 bd
       0.0005030632 -0.067462474 -0.026176095 -0.0814196
000010 00 08 41 3b 90 c9 5b 3c c0 21 f9 3b 74 a9 54 3d
       0.0029454231 0.013414755 0.0076029003 0.051919416
000020 70 56 f7 3c 5f 13 3a bd 80 e1 26 ba 44 43 f8 3c
       0.030192584 -0.04542863 -0.00063659996 0.030305512
000030 28 20 61 bd ae 7a 61 bd 9c 0a 70 bd 40 7b 86 bb
       -0.054962307 -0.055048637 -0.058603868 -0.004104048
000040 00 d4 12 3d dc 0a 18 3d 35 a3 a4 bd c0 e6 79 3b
       0.03584671 0.03711973 -0.08038942 0.0038131922
000050 f8 58 01 bc be aa 63 bd 02 f0 a3 bd 6c ef 8a 3c
       -0.007894747 -0.055582754 -0.08004762 0.016959868
000060 8c e3 c5 3c 1c 0d 97 bc 88 fd 75 3c ba 32 a4 3d
       0.024156354 -0.018438868 0.01501406 0.08017488
000070 67 da 09 bd e0 77 6f bc 20 7c 93 3c 90 5f fc 3c
       -0.03365555 -0.014615983 0.018003523 0.030807287
000080 c5 17 4c bd 58 10 0b bd 0e 7b 99 3d d2 66 0a bd
       -0.049827356 -0.033951133 0.07494174 -0.033789463
000090 08 e3 50 3d 7c e1 8d 3d 88 ef 6f 3c 5e e1 fb bc
       0.050997764 0.06927773 0.014644511 -0.030747112
0000a0 7e d0 93 3d d0 b4 eb 3c e8 61 36 3d 0c 23 00 bd
       0.07217501 0.028772742 0.044526964 -0.031283423
0000b0 b8 4b 71 3d 53 6a 72 bd e3 92 84 bd 66 c6 93 3d
       0.0589101 -0.05918343 -0.06473329 0.07215576
0000c0 52 05 98 bd e7 da a3 bd 08 9a 34 3c 90 c5 8e bb
       -0.0742289 -0.08000737 0.011023052 -0.0043570474
0000d0 e6 18 87 bd f4 e8 a5 bd 40 fc 83 3a bc 97 d3 3c
       -0.06596546 -0.08101073 0.0010069683 0.025829189
0000e0 c8 29 24 3d 56 11 93 bd 00 00 7e 3c 80 f8 96 bc
       0.04007891 -0.07181041 0.01550293 -0.01842904
0000f0 08 54 e7 bc 99 e8 28 bd 87 2a 04 bd 64 56 90 3d
       -0.028238311 -0.041237447 -0.03226712 0.07047728
000100 5c 58 85 3d 00 04 a8 3c 40 8d f6 3a 19 c9 99 bd
       0.06510994 0.02050972 0.0018810406 -0.075090595
000110 f4 14 b8 3c 00 ad 74 3a c0 c6 4b 3b bb 81 9b bd
       0.022470929 0.00093336403 0.0031093806 -0.075931035
000120 76 c2 56 bd 70 72 76 bd 24 84 70 bd c7 bd 7e bd
       -0.052431546 -0.06016773 -0.05871977 -0.062192705
000130 a2 a3 86 bd 61 92 9a bd c2 ab 89 bd 80 2d d5 bb
       -0.06574179 -0.07547451 -0.06722213 -0.006505668
000140 37 70 23 bd 9c 48 0f 3d ae 86 1e bd ab a9 89 bd
       -0.03990194 0.034981355 -0.03870266 -0.06721815
000150 b0 ce c3 3c 14 ef 43 3d f8 7c 35 3d d0 4e a0 3b
       0.023902267 0.047835425 0.044308633 0.0048922077
000160 2f ac 9b bd 46 36 a4 3d b1 3b 9d bd 72 67 c8 bc
       -0.07601201 0.08018164 -0.07677401 -0.02446339
000170 74 37 59 bd 30 64 f7 3c 48 4d 9e bc 2a e0 82 3d
       -0.0530314 0.03019914 -0.01932396 0.06390412
000180 70 31 5a 3d a6 4f 9c bd c3 9b 10 bd 30 14 e3 bc
       0.053269804 -0.07632379 -0.035304796 -0.027719587
000190 60 90 80 3d d4 50 52 bd 36 5c 9c 3d 80 b3 62 3a
       0.06277537 -0.051346615 0.07634775 0.00086479634
0001a0 0a 41 07 bd 7b bf 88 bd 66 63 63 bd 02 0f 9d bd
       -0.03302101 -0.06677147 -0.055514716 -0.07668878
0001b0 a8 25 26 bd 28 30 46 3d 47 c5 43 bd 54 bf a2 3d
       -0.040563256 0.04838577 -0.04779556 0.07946649
0001c0 34 fd 8a 3c f0 88 52 bc ec 01 96 3c 70 e6 0a bd
       0.01696644 -0.012850031 0.018311463 -0.03391117
0001d0 d0 29 97 3d 82 0f 9a 3d 0e 8c bf bc 88 72 9d 3d
       0.07381022 0.07522489 -0.023382213 0.07687861
0001e0 be a7 ca bc a0 0a 3d 3c 98 9c 82 3d e4 94 66 3d
       -0.024738189 0.011538178 0.06377524 0.056294337
0001f0 fa 9e c1 bc e8 45 cb 3c 54 e0 96 bc 20 f2 9c 3d
       -0.023635376 0.024813607 -0.018417515 0.07663369
000200 e0 3c 4c 3d 3a 9b 90 bd e6 5d 8c bd 60 11 a2 3c
       0.049862742 -0.07060857 -0.06853847 0.019783676
000210 30 24 be bb bc 68 81 bd 18 fd 9e 3d 7e 74 53 bd
       -0.0058026537 -0.063188046 0.077631176 -0.051624767
000220 b0 12 ae 3b 10 a9 aa bc 84 0d 94 3d 07 8d 61 bd
       0.0053122863 -0.020832568 0.072291404 -0.055066135
000230 89 e4 16 bd dc 23 fe bc dc ca f8 3c f5 86 6f bd
       -0.03683904 -0.031022958 0.030370168 -0.058478314
000240 96 83 99 3d 08 b2 1d 3d 76 5d 87 3d d0 74 80 3d
       0.07495801 0.038499862 0.06609623 0.0627228
000250 a0 af 03 bd 3e 9c 98 3d 50 2e 89 3d 54 1a 55 3d
       -0.03214991 0.07451676 0.066982865 0.05202706
000260 3e db a1 3d f8 93 29 3c 4a f5 ef bc 8e bf a2 3d
       0.07903145 0.01035022 -0.029291768 0.079466924
000270 20 2f 2e bb ca 6a 8e 3d b8 c7 37 bc a2 46 5f bd
       -0.0026578382 0.06953962 -0.01121705 -0.05451072
000280 b0 b2 4e 3c 70 d4 84 bc 84 ed df bc c2 80 3d bd
       0.012615845 -0.01621458 -0.027334936 -0.04626537
000290 d3 a9 32 bd 30 7c 4d 3c 26 fd 83 3d 00 19 25 3b
       -0.04361899 0.012541816 0.064447686 0.0025191903
0002a0 b0 c6 57 bc c4 b6 83 bd 40 c0 f9 ba 80 43 4a 3a
       -0.013169929 -0.06431344 -0.0019054487 0.0007715747
0002b0 ac ed 0e 3d fa 6e 18 3d 47 9f 30 bd 2c aa 25 3d
       0.03489463 0.03721521 -0.04312065 0.04044549
0002c0 1c b9 d6 3c ea 04 91 3d 32 88 40 bd 28 2c 18 3d
       0.026211314 0.070810154 -0.047004886 0.037151486
0002d0 8c 82 f7 3c 9c 5f fe 3c c4 92 b0 bc 64 15 2f 3d
       0.030213617 0.03105145 -0.021554358 0.04274501
0002e0 5a ff 9f 3d f2 8c 14 3d 00 b2 e9 ba 7c f5 ed 3c
       0.07812376 0.03626723 -0.0017829537 0.02904772
0002f0 ce 1d 25 bd e0 1f f9 3b 40 06 c5 3a 40 e5 a6 bb
       -0.040311627 0.0076026767 0.001503177 -0.0050932467
000300 f0 1d 73 3d 94 ec df 3c 2e ef 38 bd 8a 15 c6 bc
       0.059354722 0.027334489 -0.045149975 -0.024180193
000310 e8 7a a4 3c 93 19 1f bd 3a 24 98 3d b8 fc 92 3d
       0.020078138 -0.03884275 0.07428785 0.071771085
000320 3c 6e 9d 3c 04 e3 a4 3d e0 60 9e 3c c6 7e 14 3d
       0.019217603 0.08051112 0.019333303 0.036253713
000330 fe 88 38 bd fc 85 75 3d 90 7b 0f 3d b8 8a a2 bd
       -0.04505252 0.05994223 0.035029948 -0.07936615
000340 e2 cd a0 bd d4 50 6b 3d 90 f8 55 bd fc e7 de 3c
       -0.07851769 0.05745013 -0.052239 0.027210228
000350 a8 3f 80 3c 0e e1 91 bd 48 86 32 3d 75 f5 8c bd
       0.015655354 -0.07123004 0.04358509 -0.06882755
000360 22 b0 76 bd a2 d2 d2 bc d4 69 8f 3d 50 2c b5 3c
       -0.060226567 -0.025735203 0.07002607 0.022115856
000370 e0 70 25 3d e2 49 a4 3d a8 11 39 3c 20 5c 79 bc
       0.04039085 0.080219045 0.0112957135 -0.015219718
000380 a0 19 1b 3c 90 9d 8c 3d ac 55 3d 3d 38 9b 2e bd
       0.009466559 0.0686599 0.04622428 -0.042628497
000390 7e 07 09 bd 6e 79 4e bd 50 fc 1d 3d 1c e0 59 3d
       -0.03345441 -0.050408773 0.038570702 0.053192243
0003a0 ac 21 6f bd 4c d5 8d 3d e6 f4 93 bd cb 75 94 bd
       -0.05838172 0.06925449 -0.07224445 -0.0724903
0003b0 c8 02 04 3d c0 be eb 3c 50 bc 32 3d 87 89 73 bd
       0.032229215 0.02877748 0.04363662 -0.05945733
0003c0 cc 16 e1 3c e2 b4 dd bc 00 b1 f9 b9 f6 4b 7f bd
       0.02747669 -0.02706379 -0.00047624856 -0.0623283
0003d0 1a 55 25 bd 1b b2 4f bd 1c 90 fa 3c c0 f1 b9 3c
       -0.040364362 -0.050706964 0.030586295 0.022698283
0003e0 a8 48 a4 bc fb 23 9f bd 88 0c 94 bd 38 2d a5 3d
       -0.020054176 -0.077705346 -0.07228953 0.080652654
0003f0 2a 50 56 bd f0 2f 82 bb 3c 26 87 bc 20 9a b1 3c
       -0.052322544 -0.0039729998 -0.016497724 0.021679938

bias f4 [16]
000000 74 89 4b 3d 00 07 96 bd 0c 00 8f 3d 43 e3 a6 bd
       0.049691632 -0.07325554 0.06982431 -0.081488155
000010 d0 c0 8a bd d8 63 2a 3d 8a d0 1f 3d a4 c6 21 3d
       -0.06775057 0.041599125 0.039017238 0.03949608
000020 90 ae e1 3b e4 be dc bc 0c 58 5a 3d 48 48 fd bc
       0.0068872645 -0.026946492 0.053306624 -0.030918255
000030 04 54 8f bd 8e 9a 55 bd f0 39 68 3c 37 8f 09 bd
       -0.069984466 -0.052149348 0.01417397 -0.033583846

weight f4 [120, 400]
000000 c2 83 91 3c dc bf 71 3c f0 65 f7 bc 22 f1 c6 3c
       0.017763022 0.0147552155 -0.030199975 0.024284903
000010 95 b4 06 3d 73 cd 4a bd 40 07 95 ba b0 5f 70 bb
       0.03288706 -0.049512338 -0.0011369959 -0.0036678128
000020 b6 3f fa 3c 80 ee a4 bc 95 11 21 bd fb 39 25 bd
       0.030547958 -0.020133257 -0.03932341 -0.040338498
000030 18 0c 64 bc de de db 3c f0 e3 f4 3b 6a 3b 24 bd
       -0.013918899 0.02683967 0.0074734613 -0.040095724
000040 c2 d4 90 3c 9d bd aa bc fd 4d 39 bd 63 59 2c 3d
       0.017679576 -0.020842368 -0.04524039 0.042077433
000050 8d 80 bc bc ba 38 d3 bc 65 03 36 3d a0 5a 02 bb
       -0.023010517 -0.025783885 0.04443683 -0.0019890442
000060 00 80 d6 b8 dc 0e 95 bc b0 4b 28 bb 8a fe 2d bd
       -0.00010228157 -0.018195562 -0.002567988 -0.042479075
000070 a0 ed e3 3a d9 6b 24 3d c0 3c 9a 3a 73 c2 23 bd
       0.0017389543 0.040141914 0.0011767372 -0.039980363
000080 c3 13 9a bc c0 36 da ba c7 db a8 bc 09 1a 40 3d
       -0.018808251 -0.0016648397 -0.02061261 0.04689983
000090 7c af 79 3c a0 4f 9b ba 0c 18 16 bc 40 8c f3 3b
       0.015239593 -0.0011849292 -0.009161007 0.0074324906
0000a0 a2 27 97 3c 51 34 20 3d ef 93 37 bd 00 a2 25 39
       0.018451516 0.039112393 -0.044818815 0.00015795976
0000b0 66 d2 8c 3c 29 2e 07 3d 40 a2 f8 ba cd 78 a8 bc
       0.01719017 0.033003006 -0.0018969253 -0.020565415
0000c0 fa 2a 92 bc 7e 51 c3 3c 00 d2 0a 3b cb bc 1a 3d
       -0.017842758 0.02384257 0.0021182299 0.037777703
0000d0 23 7e 47 bd c0 8c fe bb 6f 28 1d 3d fd 58 c4 bc
       -0.048704278 -0.0077682436 0.03836864 -0.023968214
0000e0 b4 40 1a bc fd 0f ab bc 43 7c 38 bd 92 9b bc 3c
       -0.0094148405 -0.020881647 -0.04504038 0.0230234
0000f0 54 5d 52 bc 77 12 ea bc 52 37 ad 3c 36 70 24 bd
       -0.012839634 -0.028573258 0.021144543 -0.040146075
000100 30 3e a9 bc c0 37 54 bc 7a 76 37 bd 32 e0 d1 3c
       -0.020659536 -0.012952745 -0.044790722 0.0256196
000110 a0 82 ab bc 1d 1f 3f 3d 05 31 23 bd 21 b7 34 3d
       -0.02093631 0.04666053 -0.03984167 0.044119958
000120 20 94 74 bc 82 e2 21 bd c5 4d 1b 3d 31 3a 32 3d
       -0.014927894 -0.039522655 0.037915964 0.043512527
000130 08 fc 34 3c 8c cf 97 bc 07 c8 ea bc d0 ad 9b bc
       0.011046417 -0.018531583 -0.028659834 -0.019003779
000140 7f c6 15 3d 2f e4 22 3d 18 b7 94 bb 3a 12 88 bc
       0.036566254 0.039768394 -0.004538428 -0.016610254
000150 0d bf 3a bd 32 7f 17 bd 91 cd 06 3d 6f 7d 4a bd
       -0.045592356 -0.036986537 0.032910887 -0.04943603
000160 dc 08 6e 3c 04 bd 59 3c 28 f1 0c 3c a9 06 0d 3d
       0.014528479 0.013289694 0.008602418 0.03443018
000170 60 b4 91 3a 53 44 1b 3d 94 45 27 bc 46 c6 92 3c
       0.0011116378 0.037906956 -0.01020946 0.01791681
000180 7c 26 4f 3c ae a3 80 3c 58 b0 e1 bb 53 86 47 3d
       0.012643453 0.015703049 -0.006887477 0.048712086
000190 20 30 be bc 28 21 2d 3c a5 6f 46 3d 54 d6 75 bc
       -0.023216307 0.010566987 0.048446316 -0.015004713
0001a0 9e df 9c 3c 00 ac 05 bd 9d 80 c3 bc 0c 89 17 3c
       0.019149598 -0.032634735 -0.023865039 0.009248983
0001b0 34 43 1f 3c d4 44 8c bc 12 b9 ba 3c 1d 56 2d 3d
       0.009720612 -0.017122664 0.022793327 0.042318452
0001c0 12 cf c0 3c 1d d3 30 3d 85 8b 25 bd 0e 9f 19 bd
       0.023536239 0.043170083 -0.04041626 -0.037505202
0001d0 69 91 1c 3d 30 f3 ce bc 50 48 93 3b 58 31 37 bc
       0.03822461 -0.025262445 0.0044947043 -0.011181198
0001e0 ff de 0e 3d a6 59 d5 3c de 37 c2 3c b5 17 25 bd
       0.034880634 0.026043724 0.02370828 -0.040305812
0001f0 07 ae 47 3d e8 51 3b bc 80 07 39 3b 6b 58 0b 3d
       0.04874995 -0.011433102 0.002823323 0.03401987
000200 d9 e5 05 3d 67 bc 0f 3d 50 3d 61 3b db 02 27 3d
       0.032689903 0.035091784 0.003436882 0.040774208
000210 01 93 48 3d b2 f3 c6 3c fa fe e9 bc f1 b8 14 3d
       0.04896832 0.024286125 -0.028563965 0.036309186
000220 a0 c8 80 bc 19 2f 28 3d 45 f1 45 3d af 9d 09 3d
       -0.015720665 0.04106054 0.048325796 0.033597644
000230 fa fe bb bc 2d 65 c3 bc a2 8e ff 3c 02 bd 19 bd
       -0.02294873 -0.023851955 0.031195942 -0.037533768
000240 90 78 16 bd 00 f8 56 3a 75 02 39 3d 8a 6b b7 bc
       -0.03673607 0.0008200407 0.04516836 -0.022390146
000250 f8 7c 07 bd b1 26 42 3d 06 5b 02 bd 6c b6 71 bc
       -0.033078164 0.04740018 -0.031825088 -0.014752965
000260 58 41 37 bd f5 74 1f 3d e8 d7 38 bd b7 b1 c9 bc
       -0.04474005 0.0389299 -0.04512778 -0.024620874
000270 96 96 c0 3c 60 66 41 3b 28 74 1c bd fa c9 ad bc
       0.023509305 0.0029510483 -0.038196713 -0.021214474
000280 50 74 57 3b c0 76 eb bb 00 ed cc ba d6 28 04 bd
       0.0032875724 -0.007185787 -0.0015634596 -0.032265507
000290 7f 7d 1d 3d 92 8f d5 3c 60 79 c0 bc 40 57 4c 3a
       0.03844976 0.026069436 -0.023495376 0.00077949837
0002a0 73 b0 9d bc 55 19 2f bd 02 c6 3e bd 32 97 ca 3c
       -0.019249177 -0.042748768 -0.046575554 0.024730299
0002b0 cc cc 85 bc e8 2d 28 bc d0 85 23 bd ed 33 08 bd
       -0.016333006 -0.010264851 -0.039922535 -0.033252645
0002c0 30 5f 24 bd a0 3e 0e bb 58 63 13 3c 68 79 ba 3b
       -0.04012984 -0.0021704808 0.008995853 0.0056907423
0002d0 40 55 b8 bb 28 ed a8 bb 80 27 66 bb 00 8f a6 ba
       -0.005625397 -0.0051552244 -0.0035118759 -0.0012707412
0002e0 28 67 ea bb 00 c1 14 3c f2 b6 42 bd 7b 4f 31 3d
       -0.0071534105 0.009079218 -0.04753775 0.04328869
0002f0 c0 5f d2 3b f0 f8 31 bd 90 9a cf 3b 19 3f 47 3d
       0.0064201057 -0.043450296 0.006335564 0.04864416
000300 8e eb e4 3c 80 a4 2c bd 6d 5e 17 bd 8c 3b 13 bc
       0.027944352 -0.042149067 -0.036955286 -0.008986365
000310 58 79 99 3b a5 ff 43 bd 72 1d 30 bd f7 9b 45 bd
       0.0046836548 -0.047851223 -0.04299683 -0.048244443
000320 cd 9a c0 bc 54 92 7b 3c 46 cb 0f bd 34 0e 47 bc
       -0.023511315 0.015354712 -0.035105966 -0.012149382
000330 f8 fc 24 3c 5c ca 59 3c c6 f2 03 bd f8 fa 7d bc
       0.010070078 0.013292875 -0.03221395 -0.01550173
000340 6d a9 3f bd fd 85 1c bd c5 bc 44 3d 85 f7 30 bd
       -0.046792436 -0.03821372 0.048031587 -0.043204803
000350 1a aa 31 bd 54 2f 70 3c 9a 1e bf 3c 0d d5 42 bd
       -0.043375112 0.014659721 0.023330022 -0.047566462
000360 ad 5a 4c bd 92 a0 87 3c 80 17 29 3a 80 5b aa bc
       -0.049891163 0.016556058 0.000645034 -0.020795584
000370 a8 5e 4c bd 4e 51 b4 3c 83 e7 3c bd 10 40 b8 bc
       -0.04989496 0.022011425 -0.046119224 -0.022491485
000380 94 9d 28 3c a8 61 ab bb 28 b9 77 bc ee 8d 8b 3c
       0.010291476 -0.0052301474 -0.015119828 0.01703545
000390 d7 4f a3 bc aa e9 bf bc 88 8b 3a bc 00 63 9b 3a
       -0.019935532 -0.02342685 -0.011385806 0.0011855066
0003a0 d8 82 86 3b 69 c6 0a 3d 58 53 1d 3c 08 70 31 bd
       0.0041049533 0.033880625 0.00960239 -0.043319732
0003b0 30 c0 dd bc c1 25 11 3d bc 84 97 bc b0 fc 46 bd
       -0.027069181 0.035436396 -0.01849591 -0.048580825
0003c0 68 04 be bb 7a 88 8e bc 10 49 e4 bc 16 d0 ca 3c
       -0.005798865 -0.017399061 -0.02786687 0.024757426
0003d0 d2 bb 8c 3c b7 eb d0 bc c3 7d 05 3d ba 2d f1 bc
       0.017179403 -0.025503023 0.03259064 -0.02944075
0003e0 88 11 0e bc c0 1e ae 3a 6e 8d 0f bd da 45 8b 3c
       -0.008671172 0.0013284311 -0.035046987 0.017001081
0003f0 c3 d2 00 3d ec 93 03 bc d7 ac 2c 3d 3e 7c ef 3c
       0.031450998 -0.008030873 0.04215702 0.029234048

bias f4 [120]
000000 c7 c1 06 3d 2f 08 34 bd e8 8d e7 3b fd d5 b7 bc
       0.032899644 -0.043953117 0.007066477 -0.022440905
000010 13 9a 47 3d 55 4a 46 3d a8 ce 5d bc a9 1a 1a 3d
       0.04873092 0.048410732 -0.01353804 0.03762308
000020 47 50 e0 bc ea 30 f2 bc 32 96 bc 3c 7b 50 24 bd
       -0.02738203 -0.02956434 0.023020837 -0.040115815
000030 0a 03 e6 bc 7a 48 ac 3c 48 82 2a bd 64 8d 73 3c
       -0.028077621 0.021030653 -0.041628152 0.014865253
000040 ee 15 1b bd c0 b8 06 3a b5 f6 00 3d a0 21 19 3c
       -0.03786271 0.0005139224 0.03148528 0.009346396
000050 50 0e a1 bb b7 65 46 bd 8a 7f 01 bd 19 a7 37 3d
       -0.0049150363 -0.048436847 -0.03161577 0.04483709
000060 5a 60 eb 3c 88 9e 4a bc f9 24 05 3d a4 d2 06 bd
       0.028732467 -0.012366898 0.032505963 -0.032915726
000070 5d 14 10 bd fa 6c 20 bd 1a 11 c8 bc 61 65 43 3d
       -0.03517567 -0.03916643 -0.024422217 0.047704104
000080 47 0e bf bc d2 ba 41 bd 37 ef 28 3d e4 ae 90 bc
       -0.023322238 -0.047297306 0.041243758 -0.01766152
000090 ba a3 14 bd 54 7c 87 bc 22 98 f3 3c a0 3a d4 ba
       -0.036288954 -0.016538776 0.029735629 -0.0016191788
0000a0 80 06 71 3a 1a 0c 3a bd b0 db 4b bb e2 0c b6 3c
       0.0009194389 -0.045421697 -0.0031106286 0.02222294
0000b0 7d 78 bf bc 00 20 76 ba f8 7b 22 bd c2 06 b8 3c
       -0.023372883 -0.00093889236 -0.039669007 0.02246416
0000c0 dc 9b 6a 3c 4a 71 cb bc 80 9a 66 3b 00 71 28 bd
       0.014319386 -0.024834294 0.0035187304 -0.04112339
0000d0 e3 00 2c 3d 7d 8d 3e 3d f6 c7 22 bd 4d b9 ad bc
       0.041993033 0.046521652 -0.03974148 -0.021206522
0000e0 df 79 03 3d 20 3e 48 bb c0 e9 eb bc 30 4d d2 bb
       0.032098647 -0.0030554608 -0.028797984 -0.006417893
0000f0 e8 1e 2d 3c 8d 84 df bc b7 e9 db bc 8c ef 12 3c
       0.010566451 -0.027284885 -0.026844842 0.008968245
000100 23 1d d6 bc 6b c3 1e 3d bd 6d 2c 3d 9e dc e3 3c
       -0.02613694 0.038760584 0.042096842 0.02781516
000110 64 a1 6c 3c 00 57 7f bb 56 37 e0 3c 5b 27 46 bd
       0.014442775 -0.0038961768 0.027370136 -0.048377376
000120 02 78 e4 3c 28 6a 10 3c 57 2b 04 3d 32 be eb 3c
       0.027889255 0.008814372 0.032267895 0.028777216
000130 e0 68 72 bb 4b 76 1a bd 33 33 48 3d 22 4c 92 3c
       -0.003698878 -0.03771047 0.048876952 0.017858569
000140 34 7c 21 bc b9 87 08 3d 40 f9 9b ba b9 0b 45 3d
       -0.0098562725 0.03333256 -0.0011899844 0.048106883
000150 25 35 1b 3d 21 4b 0e 3d 9e ad a8 3c 02 e5 f4 3c
       0.03789248 0.034739617 0.0205906 0.029894356
000160 53 f2 36 bd 72 f9 af 3c 0f 7b 3b bd 98 16 47 bc
       -0.044664692 0.02148125 -0.045771655 -0.012151383
000170 7d 01 43 3d 80 e2 9f 3b 44 02 95 bc 5e 7e 8b 3c
       0.04760884 0.004879296 -0.018189557 0.01702803
000180 5e 71 db 3c 94 63 47 3c 1f dd 46 bd 41 cc 3b 3d
       0.026787456 0.012169737 -0.04855072 0.04584909
000190 97 74 bb bc c0 d2 21 bc 6b 21 36 bd d0 c4 aa bc
       -0.022882743 -0.009876907 -0.044465464 -0.0208458
0001a0 3f 6f 18 3d d8 a3 5c bc 59 0a 2c 3d 36 e7 22 bd
       0.037215468 -0.013466798 0.042002056 -0.03977128
0001b0 e8 63 ab bb c0 95 86 ba 61 42 10 3d b4 0a 44 bc
       -0.0052304156 -0.0010268018 0.035219554 -0.011965442
0001c0 a5 53 11 bd 4a 87 36 bd b2 5e ec 3c 2f 26 2d 3d
       -0.03548016 -0.044562615 0.028853748 0.042272743
0001d0 aa 06 a5 3c 40 b6 9e 3b 46 b9 c9 3c 28 67 30 bc
       0.02014478 0.0048435032 0.024624478 -0.010766782

weight f4 [84, 120]
000000 68 20 0f 3d c8 f6 95 3d a3 59 1d bd 7a ee ae 3d
       0.034943014 0.073224604 -0.038415562 0.085415795
000010 30 3e 83 bc b4 92 a9 bd 20 cf f4 3c 00 3c 15 3b
       -0.016020864 -0.082799345 0.029883921 0.0022771358
000020 0b 42 6b bd a8 00 60 3d ac 5a 3a 3d 80 f0 ca ba
       -0.05743603 0.054688126 0.045496628 -0.0015483052
000030 30 ba 23 3d 88 09 89 3d 6e 83 a1 3d 91 92 ae bd
       0.039972484 0.06691271 0.07886396 -0.08524049
000040 c0 39 e3 bc b8 c8 0c 3d 2e bf ba 3d 50 d3 40 3c
       -0.027737498 0.034371108 0.09118496 0.011769131
000050 55 42 26 bd 7e a3 87 3d 44 dd 98 bc b0 6d 91 3d
       -0.040590603 0.066229805 -0.018660195 0.07100999
000060 70 5f ca bb 48 59 a6 3d 24 6e 45 3d 60 38 e4 3b
       -0.006175928 0.08122498 0.04820074 0.0069647282
000070 56 ea 9a 3d b2 2c 49 bd 6c 60 55 3d f0 3c 78 bd
       0.07564227 -0.04911489 0.05209391 -0.06060499
000080 6e d7 85 3d 30 53 6d bd 12 77 92 3d 12 68 8d 3d
       0.065352306 -0.057940662 0.07151617 0.069046155
000090 a0 5c 4d bb c4 95 64 bd 48 6c 7e 3c f2 78 99 3d
       -0.0031335726 -0.05580689 0.015528746 0.074937716
0000a0 de bd 96 bd a8 02 1c 3d a8 95 67 3d 14 09 96 bd
       -0.07360433 0.03808847 0.056539208 -0.0732595
0000b0 ec fd 52 bd 24 b3 5d 3d d4 e3 d1 bc 7e fa 7a bd
       -0.05151169 0.05412592 -0.025621332 -0.061274044
0000c0 e0 48 85 3d 41 e9 71 bd da 13 84 3d c0 96 2c 3b
       0.065080404 -0.05906034 0.06449099 0.0026334971
0000d0 09 a7 0e bd 73 ec a7 bd c8 54 bf 3c 1c da aa 3c
       -0.034827266 -0.08199396 0.023355857 0.020855956
0000e0 a4 44 a8 3c 60 bc 2f 3c 9a 04 a4 3d 85 20 22 bd
       0.020540543 0.010726064 0.0800869 -0.039581794
0000f0 ee 82 a5 3d 56 dc 4e bd 9e da 96 bd 20 ea 5f 3d
       0.080816135 -0.050503097 -0.07365917 0.05466664
000100 99 ec a5 bd 64 2d d8 bc 08 13 85 3d 0c ac 9e 3d
       -0.08101768 -0.026388831 0.064977705 0.07747659
000110 68 9b 92 bc 04 d8 ac bd 80 00 81 3b aa 3d 29 bd
       -0.01789637 -0.08439639 0.003936827 -0.041318573
000120 41 4c b0 bd 91 8a 8e bd 68 58 5f 3c 94 98 87 3c
       -0.08608294 -0.06960023 0.013631918 0.016552247
000130 48 3a 4b 3d 9c 03 e8 3c e0 be 0f 3d 84 14 aa bd
       0.04961613 0.028322034 0.035094142 -0.08304694
000140 9a 0c a4 3d 08 d6 4e 3d dc da 0c 3d d0 08 64 3d
       0.08010216 0.050497085 0.034388408 0.055672467
000150 ee 93 93 3d 00 78 4b bc 40 d8 4f 3d 74 04 c5 bc
       0.0720595 -0.012418747 0.05074334 -0.024049975
000160 4d b0 ac bd 9e f3 a5 3d d0 39 1a 3c 20 98 e1 3b
       -0.08432064 0.08103107 0.009413198 0.00688459
000170 f4 35 fe 3c b6 c3 07 3d 64 35 f1 3c 74 d5 84 bd
       0.031031586 0.03314563 0.029444404 -0.064860255
000180 d0 a2 5a 3d 06 7b 74 bd c0 f0 58 bc 0e 27 05 bd
       0.053377926 -0.059687637 -0.013240993 -0.03250795
000190 3e 32 80 bd e8 45 4f 3c 88 d3 87 bc 61 e1 ba bd
       -0.06259583 0.012650944 -0.016580358 -0.09125019
0001a0 58 14 7f 3d c0 be a6 bc c8 ed dd 3c 1d 6c 60 bd
       0.06227526 -0.020354629 0.027090922 -0.054790605
0001b0 50 20 ad 3b 00 c0 e1 b6 9e d8 ac 3d be e8 8f 3d
       0.005283393 -6.7278743e-06 0.08439754 0.07026814
0001c0 a8 f9 b4 bc af 87 17 bd 02 0b a4 3d a0 0a 86 3d
       -0.022091702 -0.036994632 0.08009912 0.06544995
0001d0 2c 68 b8 3d 00 0e 0c 3a ce bb b2 bd 7a 7f 6e bd
       0.09004244 0.00053426623 -0.08727227 -0.05822704
0001e0 44 49 09 3d 74 22 ca 3c 84 a9 b0 bd 24 a1 90 3d
       0.033517137 0.024674632 -0.086260825 0.07061985
0001f0 80 49 23 bc 24 4a 22 3d ec ec af 3d cc e0 00 3d
       -0.009966254 0.039621487 0.08590111 0.031464383
000200 30 02 45 3d 50 fb 4a 3c 13 e5 06 bd 7f 2d 0a bd
       0.04809779 0.012389019 -0.032933306 -0.033734795
000210 70 09 dd 3c ef 12 18 bd 40 10 cc 3b 08 9a b0 3d
       0.02698204 -0.03712743 0.006227523 0.08623129
000220 08 02 94 bc 50 8a 47 3d 4a cd b4 bd 20 5e 48 bc
       -0.018067375 0.04871589 -0.08828218 -0.012229472
000230 52 35 ba bd aa 64 9a 3d 00 11 6b 3a e0 a8 89 3d
       -0.09092201 0.075387314 0.0008967072 0.067216635
000240 77 0e 59 bd fc ca b3 3d 5c 80 13 bd 0d ef 94 bd
       -0.05299231 0.087789506 -0.036011085 -0.07272158
000250 99 2a 11 bd e0 7a a5 bb 76 9d 03 bd f7 40 6a bd
       -0.035441015 -0.005050048 -0.03213259 -0.05719086
000260 06 32 b6 3d d8 79 aa bd 50 2d 07 3d 7c ee 18 3d
       0.0889626 -0.08324021 0.033002198 0.03733681
000270 f8 33 1b 3c a8 a3 e0 bc 7c 28 88 bd 10 3c f5 3b
       0.0094728395 -0.027421787 -0.06648347 0.0074839666
000280 5a 1e a6 3d e0 21 3e bc eb c4 b0 bd b0 54 ed bb
       0.08111258 -0.011604756 -0.08631309 -0.0072427616
000290 3c d3 b3 bd 28 48 8c bc 78 54 78 bd 20 54 4f 3d
       -0.08780524 -0.01712425 -0.06062743 0.050617337
0002a0 0d ef 35 bd 20 69 19 bc 68 76 d6 bc 88 5c 3c 3d
       -0.04441743 -0.009363443 -0.026179507 0.045986682
0002b0 d8 a1 ab 3d 34 fa f4 3c af ab a2 bd 20 a0 0d bb
       0.083804786 0.029904462 -0.07942902 -0.0021610335
0002c0 47 d7 14 bd ac 30 a0 bc a5 d7 5b bd 48 d1 4d 3d
       -0.036338117 -0.019554459 -0.05367245 0.050248414
0002d0 18 3d 94 3c b0 d7 f5 3c a6 53 8f 3d 7c c5 41 bd
       0.018095538 0.030010074 0.069983765 -0.047307476
0002e0 d8 bf 52 3d 52 0d 86 3d 2e 2c b7 3d c0 83 14 3b
       0.051452488 0.065455094 0.089439735 0.0022661537
0002f0 b8 57 61 3d 8c a2 45 bd cd c5 95 bd e8 03 af 3d
       0.055015296 -0.04825072 -0.07313118 0.08545667
000300 9c 9e 01 3d 00 17 31 3d 70 ad 17 3d 4d 1e 84 bd
       0.031645402 0.043234825 0.037030637 -0.06451092
000310 e6 02 a2 bd 40 30 31 3b ba b4 7a bd 64 fe 92 3d
       -0.07910709 0.0027036816 -0.06120751 0.071774274
000320 d0 a9 11 3c 1c e7 27 3d a5 ff 0b bd 8a 4b b7 3d
       0.008890584 0.040991887 -0.03417935 0.08949955
000330 50 a4 0b 3d 3c 5c ff 3c e8 41 69 3d 84 6e fc 3c
       0.034092247 0.03117191 0.05694762 0.030814417
000340 65 29 4b bd 9a 3c 85 3d e9 a4 42 bd 88 cc 48 3c
       -0.049600024 0.065056995 -0.04752055 0.012255795
000350 80 3b f5 bc 40 a6 28 3d 48 05 85 3c 60 fe b2 3d
       -0.029935598 0.041174173 0.01623787 0.087399244
000360 46 b5 06 3d 70 b6 55 3d 00 43 e2 3c 98 5c 50 3d
       0.03288772 0.05217594 0.027619839 0.050869554
000370 44 f1 fa 3c 2c fa 1e bd e8 ab 43 3d e0 82 d7 bb
       0.030632623 -0.0388128 0.047771364 -0.006576881
000380 3c 8f 93 bc f4 1e a2 bd 0c b9 a7 bd b9 9d 3b bd
       -0.018012635 -0.0791606 -0.08189592 -0.045804713
000390 70 9f 8b 3d 80 5e cc bc 78 d6 ab bc 4e ab 82 bd
       0.0681752 -0.024947405 -0.02097629 -0.0638033
0003a0 a1 c8 ae bd d0 c8 36 bc 8e 10 79 bd 4c cc ae 3d
       -0.08534361 -0.011156276 -0.060806803 0.0853506
0003b0 e6 3d 9d bd 6c b7 b2 3d 0c 74 a9 3d b8 b3 d7 3c
       -0.07677822 0.08726391 0.08274087 0.026330814
0003c0 18 39 40 3d 57 ab b4 bd d0 ae 32 bc 8c e2 5a 3d
       0.04692945 -0.08821743 -0.010905936 0.05343871
0003d0 c4 ab 4c 3d 24 96 b3 3c c0 a3 d8 3b a0 f3 41 3d
       0.049968496 0.021922179 0.0066113174 0.04735148
0003e0 f0 ae 27 3d 48 a2 14 bc a2 0f 0a bd 00 82 5f 3d
       0.040938318 -0.009071894 -0.033706315 0.054567337
0003f0 e2 68 a8 bd 10 4e 22 3c 10 45 3e 3d a2 77 96 3d
       -0.0822313 0.009906307 0.046452582 0.07347037

bias f4 [84]
000000 cc 27 4e 3d 02 d3 79 bd 70 bb 92 bb 50 fc fd 3b
       0.050330922 -0.06099225 -0.0044779107 0.0077510253
000010 b1 c3 60 bd d4 85 94 bc 38 13 5b 3c e1 42 82 bd
       -0.054874126 -0.01813022 0.013371281 -0.063604124
000020 0c 6f 7b 3d f4 7d 54 3d b8 70 07 3c 80 b9 50 3b
       0.0613852 0.05187793 0.00826662 0.0031848848
000030 70 49 b9 3b f0 97 84 bb 80 5e b4 3c c3 01 6a bd
       0.0056545064 -0.0040464327 0.022017717 -0.057130586
000040 30 22 a0 3b dc 16 6d bd 88 24 35 bd 2d 40 9a bd
       0.004886888 -0.05788313 -0.044224292 -0.07531772
000050 c0 37 fe 3a 58 c2 37 3c ac b3 a1 bd 6c 88 3a 3d
       0.0019395277 0.011215769 -0.07895598 0.04554026
000060 54 41 06 3d 00 a1 43 3d 72 d6 2d bd e8 70 17 3d
       0.032777146 0.047760963 -0.04244084 0.03697291
000070 a6 4d 9d 3d a0 36 69 bd d2 54 a2 3d 00 18 4d ba
       0.07680826 -0.05693686 0.079263344 -0.00078237057
000080 98 60 43 3d 60 ac 89 3b 70 10 4d 3d c4 77 bf bc
       0.04769954 0.004201457 0.050064504 -0.023372538
000090 c0 f3 d7 3b 65 a7 a8 bd 38 cb af 3c 38 49 20 3d
       0.0065903366 -0.08235053 0.021459207 0.039132327
0000a0 50 bc 8d bd 4c 56 4e 3d 8b ed ba bd b2 bc b6 3d
       -0.069206834 0.050375268 -0.09127339 0.089227095
0000b0 76 60 97 3d 69 76 8b bd e8 74 ae 3d c4 0f 1c 3d
       0.07391445 -0.06809694 0.08518392 0.038100973
0000c0 80 ef 62 3d 34 28 4d bd a0 a2 7f bc 0e 03 4b bd
       0.055404186 -0.05008717 -0.015602738 -0.04956346
0000d0 d0 86 ef 3b 60 ae 99 bb e6 1e a2 3d 6d 1b 9d bd
       0.007309772 -0.0046899766 0.0791605 -0.07671247
0000e0 78 12 96 3c 80 ca 87 3b 6e ea 51 bd 2e 64 a5 3d
       0.018319353 0.004144013 -0.05124896 0.080757484
0000f0 18 6b 37 3d 50 64 54 3c fe fa 8c 3d 1c 24 a1 3d
       0.044779867 0.0129633695 0.068838105 0.078682154
000100 cc de 9d 3c 78 a2 b0 bd db 17 8d bd 40 64 87 3d
       0.019271277 -0.086247385 -0.06889316 0.06610918
000110 b0 ed 8e 3d 00 00 6f 37 58 2c dc bc b2 88 9d 3d
       0.06978929 1.424551e-05 -0.026876613 0.07692088
000120 98 67 3d 3d a0 d2 10 bb b4 2a 98 3d e0 8e 3e bc
       0.046241373 -0.0022098199 0.0743002 -0.011630744
000130 78 ba a1 bc 20 c5 05 bb fb 7d 2e bd f4 c8 7a 3d
       -0.019742236 -0.0020411685 -0.042600613 0.0612268
000140 4e 1b 97 3d f4 42 97 3c c5 59 ab bd e4 16 03 3d
       0.07378255 0.018464543 -0.083667316 0.032004252

weight f4 [10, 84]
000000 b5 1c 5a bd 08 f9 66 bc 20 60 e3 3b 04 bd 91 bd
       -0.053250033 -0.01409746 0.006938949 -0.0711613
000010 8c c5 dd bd 45 ac d7 3d 00 c3 82 bc e3 f1 9e 3d
       -0.10828695 0.10530905 -0.015962124 0.0776098
000020 78 18 53 bc a6 d5 43 3d 60 5a 42 bd c2 3d 3c 3d
       -0.012884252 0.047811173 -0.04744947 0.045957334
000030 ca f7 1d bd 56 36 7c bd 2c 97 78 bd ef af 4e bd
       -0.03856639 -0.061575256 -0.060691044 -0.050460752
000040 30 b8 a8 bb e8 af 31 3c 26 72 b0 bd 24 89 b1 3c
       -0.00514891 0.010845162 -0.08615522 0.021671839
000050 20 33 08 3c 6e e0 58 bd 81 8f c2 bd 64 0c ce bc
       0.00831297 -0.052948408 -0.095000274 -0.025152393
000060 12 e8 6a 3d 1b 69 b8 3d 6e f2 18 3d d3 b3 bd 3d
       0.057350226 0.09004422 0.037340574 0.092628144
000070 b5 70 dd 3d 1c eb 90 bd 5f 67 8f 3d 32 fc af bd
       0.10812513 -0.070760936 0.07002138 -0.08593024
000080 3b a5 bb 3d 99 a0 de 3d 54 97 a0 3c 20 bf 28 bd
       0.091623746 0.10870475 0.019603409 -0.041197896
000090 03 a5 c0 3d 93 90 d8 bd 53 e0 9f 3d 7a 69 db bd
       0.094064735 -0.1057445 0.07806458 -0.107134774
0000a0 ac fb f8 3c a2 c2 79 3d 28 e4 a9 bc 87 b9 8d 3d
       0.030393444 0.060976632 -0.020738676 0.06920152
0000b0 cc 3a 13 bd 4a c3 76 3d 4a 7b 5b 3d 9e 20 55 3d
       -0.035944745 0.060244836 0.053584374 0.05203306
0000c0 d8 90 fb bc 67 53 d5 3d 64 84 8d bd 06 e0 2c bd
       -0.030708715 0.10416298 -0.06910017 -0.042205833
0000d0 1b 15 97 3d 19 27 9c bd bc c1 d3 3c e2 32 57 3d
       0.073770724 -0.07624645 0.025849216 0.05253876
0000e0 2c 44 f2 bc fc 87 35 bd ae ce 15 3d a0 67 9d bd
       -0.029573523 -0.044319138 0.03657406 -0.076857805
0000f0 74 a3 88 bc b8 4c 33 bc fe 7d 0f bd 9b 68 8e 3d
       -0.016679503 -0.010943584 -0.035032265 0.06953546
000100 1c f6 a9 bd 34 8b 94 bc 3a 9f 1b 3d ea d6 4b 3d
       -0.08298895 -0.018132783 0.037993647 0.049765505
000110 bc 48 e6 3c ea 4e 0c 3d 0b 73 94 3d 87 52 df 3d
       0.028110854 0.034254946 0.07248505 0.10904413
000120 96 1e 5c 3d 00 bb 9d 39 41 75 9f 3d a0 69 27 bd
       0.053740107 0.000300847 0.07786036 -0.040872216
000130 f0 fc e5 bb 7b e2 af 3d 21 9c 4e bd 8d b6 81 bd
       -0.007018678 0.085881196 -0.050441865 -0.06333647
000140 8a db 14 3d 7d 8f 56 bd e1 a3 c9 3d 11 1a 97 3d
       0.03634218 -0.052382935 0.098457105 0.07378019
000150 46 6e 2c 3d 3b 48 86 3d f3 ad b2 bd 40 c3 99 bb
       0.042097352 0.065567456 -0.087245844 -0.004692465
000160 89 65 ce bd 02 f0 53 bd 97 4a c7 3d 91 01 c0 bd
       -0.1007796 -0.05174256 0.09731024 -0.09375299
000170 5e 3c 0d 3d e5 63 a7 3d 68 f1 0a bc 6f b0 dd 3d
       0.0344814 0.0817335 -0.008480407 0.10824668
000180 2a 6d 68 3d 56 72 26 3d 1a f5 13 3d 5a 89 45 bd
       0.056744732 0.040636383 0.03612242 -0.04822669
000190 02 2c 1f 3d fd f7 40 bd b6 43 8c bd fe e6 ac bd
       0.03886033 -0.0471115 -0.06848852 -0.08442496
0001a0 25 48 cc 3d 3e 83 65 3d d4 03 c0 3c 2e 0e 3a 3d
       0.09974698 0.056033365 0.023439325 0.04542368
0001b0 ca cd 98 bd 6b 99 b7 3d 75 6f b4 bd e8 c1 da bc
       -0.07461126 0.08964809 -0.08810321 -0.02670379
0001c0 46 23 36 3d 83 2d de 3d 54 c1 99 bd 59 3d b0 3d
       0.044467233 0.108485244 -0.075075775 0.08605451
0001d0 09 6e a1 3d 11 05 c0 3d 04 ab 67 bd 07 3c 7b bd
       0.07882316 0.09375966 -0.056559578 -0.061336543
0001e0 37 33 dd bd 9a 41 b9 bd 92 ea 53 3d 16 12 48 bd
       -0.10800784 -0.09045716 0.051737376 -0.048845373
0001f0 ca 1e c6 bd 04 3b f6 bc 2a 9a 14 3d f6 f0 04 3d
       -0.09673841 -0.030057438 0.036279835 0.03245636
000200 7e 4d 46 3d 4e 60 3e bd d6 63 d0 bd c9 8c 9f bd
       0.048413746 -0.046478562 -0.10175292 -0.077905245
000210 8c d2 a7 bd 50 e8 92 bb 4c f9 99 3c ff c7 89 3d
       -0.081944555 -0.00448326 0.018795632 0.06727599
000220 82 02 5a 3d 7e f8 03 3d 9b a6 dd 3d bb be d3 3d
       0.053225048 0.032219402 0.10822793 0.10339113
000230 a0 a3 e4 bb bc 7c a4 bd da 54 49 3d 34 b6 06 bd
       -0.0069775134 -0.08031604 0.049153186 -0.032888606
000240 00 b2 06 ba f8 50 12 bd 75 e2 a6 3d 02 91 02 bd
       -0.00051382184 -0.03572175 0.08148662 -0.03187657
000250 53 92 a9 bd 98 84 6e 3c 59 d1 bd 3d 90 cd 94 bd
       -0.08279862 0.01455798 0.092684455 -0.072657704
000260 00 b0 a3 bc b9 e6 9d 3d 84 d5 97 3c 5c 51 9d bc
       -0.019981384 0.077100225 0.01853443 -0.019203834
000270 e4 2b ad 3c dc a4 87 bd 6a 4f 11 bd 00 f1 89 3a
       0.021139093 -0.06623241 -0.035476126 0.0010524094
000280 c0 4f 78 bc 24 47 a9 3c 8c 37 03 bd f2 b9 2a bd
       -0.015155733 0.020663805 -0.032035396 -0.041681238
000290 08 67 63 bc e9 70 71 bd c7 d8 d7 3d a5 a7 8c bd
       -0.013879545 -0.05894557 0.10539394 -0.06867913
0002a0 7e c7 29 bd 34 66 26 bd 81 fb c9 3d 87 d2 c2 3d
       -0.041450016 -0.040624812 0.09862424 0.09512811
0002b0 62 30 0d bd bd 59 c4 3d 6a eb 74 3d 0e 21 90 bd
       -0.03446997 0.09587429 0.05979482 -0.07037555
0002c0 7b 17 af 3d 90 9b 2d 3c f9 fc 65 bd 1e 76 4a bd
       0.085494004 0.010596171 -0.056149457 -0.04942905
0002d0 ca 55 28 bd ac f0 cf bd 40 81 33 3c 0d 36 99 3d
       -0.04109744 -0.101533264 0.010956109 0.074810125
0002e0 9a 51 78 bd 6b 30 9d 3d 68 dd 40 bd 22 55 06 bd
       -0.060624696 0.076752506 -0.04708615 -0.032796033
0002f0 08 30 95 bc 2a a9 2d 3d 29 c2 c7 3d e2 ad 62 3d
       -0.01821138 0.042397656 0.0975383 0.05534161
000300 46 4f 34 3d b5 4f c2 3d 48 50 ad bd 7c 15 f5 bc
       0.044020914 0.09487859 -0.08462578 -0.029917471
000310 de ca 2e 3d a0 2a 38 3c d8 d2 74 bc 3a 21 7e 3d
       0.042673938 0.011240631 -0.014942847 0.062043406
000320 40 ad 0f 3b 52 b9 29 bd 8d e3 bb 3d 50 e7 c2 bb
       0.0021923333 -0.0414365 0.09174261 -0.0059479848
000330 54 c7 cf 3c 52 32 66 3d 0a a5 8b bd 14 6e dd bc
       0.025363602 0.056200333 -0.06818588 -0.027030028
000340 1f 63 7e bd 5c b7 8c bd 77 09 bd 3d 0b 7a dd bd
       -0.062106248 -0.068709105 0.09230321 -0.108142935
000350 57 3e 8a 3d 22 6c 16 3d 4d a0 b6 3d 11 04 d9 3d
       0.06750172 0.036724217 0.08917294 0.10596479
000360 82 3f be bd 1a b3 33 3d 37 98 b2 3d 66 73 9f bd
       -0.09289457 0.043871976 0.08720439 -0.077856824
000370 5d d6 89 3d 89 b2 8c bd d0 c6 dd 3b 11 21 98 3d
       0.0673034 -0.068699904 0.006768085 0.07428182
000380 34 01 f7 3c 89 09 cd 3d 76 24 ad bd 2c 0e f7 bc
       0.03015194 0.10011584 -0.0845422 -0.030158125
000390 a0 c6 6b bc 7a ba 33 bd e0 9b 43 bc 87 ad c3 3d
       -0.014390618 -0.04387901 -0.011939019 0.09554582
0003a0 e0 1b 64 bc 68 c1 c7 bd af 62 b2 3d 4b ae b2 3d
       -0.013922662 -0.09753686 0.08710229 0.0872465
0003b0 d4 9a e0 bc be 76 1f 3d d4 8e 9b 3c d0 2a 84 bb
       -0.027417578 0.0389316 0.018989004 -0.004033424
0003c0 8b 53 dd 3d e7 28 94 3d 42 db b2 bd 10 09 8f bd
       0.1080695 0.07234364 -0.08733226 -0.069841504
0003d0 98 4f 49 bc 86 57 df bd a5 7e 87 3d a2 5d 07 3d
       -0.012287043 -0.10905366 0.066159524 0.03304828
0003e0 8e be 5e 3d 9e 83 9f bd c5 ab 81 bd bf 5d c9 3d
       0.054380946 -0.07788776 -0.063315906 0.09832334
0003f0 d2 8b 69 3d fb db 94 3d 88 20 6c bc 1a 37 61 3d
       0.05701811 0.072685204 -0.014412053 0.05498419

bias f4 [10]
000000 87 49 6f bd be 8e a1 bd d2 a4 33 bd 30 80 58 3c
       -0.05841973 -0.07888554 -0.043858357 0.013214156
000010 22 b6 ab bd 51 76 99 3d 58 e4 6d bd ec 40 9b bc
       -0.083843485 0.0749327 -0.058079094 -0.018951856
000020 dc a3 c3 3c 89 3b 9d 3d
       0.023881845 0.07677371
